{"format": "graph-model", "generatedBy": "2.15.1", "convertedBy": "TensorFlow.js Converter v4.22.0", "signature": {"inputs": {"x": {"name": "x:0", "dtype": "DT_FLOAT", "tensorShape": {"dim": [{"size": "-1"}, {"size": "224"}, {"size": "224"}, {"size": "3"}]}}}, "outputs": {"output": {"name": "Identity:0", "dtype": "DT_FLOAT", "tensorShape": {"dim": [{"size": "-1"}, {"size": "33"}]}}}}, "modelTopology": {"node": [{"name": "PartitionedCall/PartitionedCall/PartitionedCall/strided_slice_5/stack", "op": "Const", "attr": {"value": {"tensor": {"dtype": "DT_INT32", "tensorShape": {"dim": [{"size": "1"}]}}}, "dtype": {"type": "DT_INT32"}}}, {"name": "PartitionedCall/PartitionedCall/PartitionedCall/strided_slice_5/stack_1", "op": "Const", "attr": {"value": {"tensor": {"dtype": "DT_INT32", "tensorShape": {"dim": [{"size": "1"}]}}}, "dtype": {"type": "DT_INT32"}}}, {"name": "PartitionedCall/PartitionedCall/PartitionedCall/strided_slice_5/stack_2", "op": "Const", "attr": {"value": {"tensor": {"dtype": "DT_INT32", "tensorShape": {"dim": [{"size": "1"}]}}}, "dtype": {"type": "DT_INT32"}}}, {"name": "PartitionedCall/PartitionedCall/PartitionedCall/Const_17", "op": "Const", "attr": {"value": {"tensor": {"dtype": "DT_INT32", "tensorShape": {"dim": [{"size": "1"}]}}}, "dtype": {"type": "DT_INT32"}}}, {"name": "PartitionedCall/PartitionedCall/PartitionedCall/Const_15", "op": "Const", "attr": {"value": {"tensor": {"dtype": "DT_INT32", "tensorShape": {"dim": [{"size": "4"}, {"size": "2"}]}}}, "dtype": {"type": "DT_INT32"}}}, {"name": "PartitionedCall/PartitionedCall/PartitionedCall/transpose_57/perm", "op": "Const", "attr": {"value": {"tensor": {"dtype": "DT_INT32", "tensorShape": {"dim": [{"size": "4"}]}}}, "dtype": {"type": "DT_INT32"}}}, {"name": "PartitionedCall/PartitionedCall/PartitionedCall/split_18", "op": "Const", "attr": {"value": {"tensor": {"dtype": "DT_FLOAT", "tensorShape": {"dim": [{"size": "3"}, {"size": "3"}, {"size": "512"}, {"size": "512"}]}}}, "dtype": {"type": "DT_FLOAT"}}}, {"name": "unknown_36", "op": "Const", "attr": {"value": {"tensor": {"dtype": "DT_FLOAT", "tensorShape": {"dim": [{"size": "512"}]}}}, "dtype": {"type": "DT_FLOAT"}}}, {"name": "PartitionedCall/PartitionedCall/PartitionedCall/transpose_58/perm", "op": "Const", "attr": {"value": {"tensor": {"dtype": "DT_INT32", "tensorShape": {"dim": [{"size": "4"}]}}}, "dtype": {"type": "DT_INT32"}}}, {"name": "PartitionedCall/PartitionedCall/PartitionedCall/Const_16", "op": "Const", "attr": {"value": {"tensor": {"dtype": "DT_INT32", "tensorShape": {"dim": [{"size": "4"}, {"size": "2"}]}}}, "dtype": {"type": "DT_INT32"}}}, {"name": "PartitionedCall/PartitionedCall/PartitionedCall/transpose_60/perm", "op": "Const", "attr": {"value": {"tensor": {"dtype": "DT_INT32", "tensorShape": {"dim": [{"size": "4"}]}}}, "dtype": {"type": "DT_INT32"}}}, {"name": "PartitionedCall/PartitionedCall/PartitionedCall/split_19", "op": "Const", "attr": {"value": {"tensor": {"dtype": "DT_FLOAT", "tensorShape": {"dim": [{"size": "3"}, {"size": "3"}, {"size": "512"}, {"size": "512"}]}}}, "dtype": {"type": "DT_FLOAT"}}}, {"name": "unknown_38", "op": "Const", "attr": {"value": {"tensor": {"dtype": "DT_FLOAT", "tensorShape": {"dim": [{"size": "512"}]}}}, "dtype": {"type": "DT_FLOAT"}}}, {"name": "PartitionedCall/PartitionedCall/PartitionedCall/transpose_61/perm", "op": "Const", "attr": {"value": {"tensor": {"dtype": "DT_INT32", "tensorShape": {"dim": [{"size": "4"}]}}}, "dtype": {"type": "DT_INT32"}}}, {"name": "PartitionedCall/PartitionedCall/PartitionedCall/Const_13", "op": "Const", "attr": {"value": {"tensor": {"dtype": "DT_INT32", "tensorShape": {"dim": [{"size": "4"}, {"size": "2"}]}}}, "dtype": {"type": "DT_INT32"}}}, {"name": "PartitionedCall/PartitionedCall/PartitionedCall/transpose_48/perm", "op": "Const", "attr": {"value": {"tensor": {"dtype": "DT_INT32", "tensorShape": {"dim": [{"size": "4"}]}}}, "dtype": {"type": "DT_INT32"}}}, {"name": "PartitionedCall/PartitionedCall/PartitionedCall/split_15", "op": "Const", "attr": {"value": {"tensor": {"dtype": "DT_FLOAT", "tensorShape": {"dim": [{"size": "3"}, {"size": "3"}, {"size": "256"}, {"size": "512"}]}}}, "dtype": {"type": "DT_FLOAT"}}}, {"name": "unknown_30", "op": "Const", "attr": {"value": {"tensor": {"dtype": "DT_FLOAT", "tensorShape": {"dim": [{"size": "512"}]}}}, "dtype": {"type": "DT_FLOAT"}}}, {"name": "PartitionedCall/PartitionedCall/PartitionedCall/transpose_49/perm", "op": "Const", "attr": {"value": {"tensor": {"dtype": "DT_INT32", "tensorShape": {"dim": [{"size": "4"}]}}}, "dtype": {"type": "DT_INT32"}}}, {"name": "PartitionedCall/PartitionedCall/PartitionedCall/Const_14", "op": "Const", "attr": {"value": {"tensor": {"dtype": "DT_INT32", "tensorShape": {"dim": [{"size": "4"}, {"size": "2"}]}}}, "dtype": {"type": "DT_INT32"}}}, {"name": "PartitionedCall/PartitionedCall/PartitionedCall/transpose_51/perm", "op": "Const", "attr": {"value": {"tensor": {"dtype": "DT_INT32", "tensorShape": {"dim": [{"size": "4"}]}}}, "dtype": {"type": "DT_INT32"}}}, {"name": "PartitionedCall/PartitionedCall/PartitionedCall/split_16", "op": "Const", "attr": {"value": {"tensor": {"dtype": "DT_FLOAT", "tensorShape": {"dim": [{"size": "3"}, {"size": "3"}, {"size": "512"}, {"size": "512"}]}}}, "dtype": {"type": "DT_FLOAT"}}}, {"name": "unknown_32", "op": "Const", "attr": {"value": {"tensor": {"dtype": "DT_FLOAT", "tensorShape": {"dim": [{"size": "512"}]}}}, "dtype": {"type": "DT_FLOAT"}}}, {"name": "PartitionedCall/PartitionedCall/PartitionedCall/transpose_52/perm", "op": "Const", "attr": {"value": {"tensor": {"dtype": "DT_INT32", "tensorShape": {"dim": [{"size": "4"}]}}}, "dtype": {"type": "DT_INT32"}}}, {"name": "PartitionedCall/PartitionedCall/PartitionedCall/Const_11", "op": "Const", "attr": {"value": {"tensor": {"dtype": "DT_INT32", "tensorShape": {"dim": [{"size": "4"}, {"size": "2"}]}}}, "dtype": {"type": "DT_INT32"}}}, {"name": "PartitionedCall/PartitionedCall/PartitionedCall/transpose_42/perm", "op": "Const", "attr": {"value": {"tensor": {"dtype": "DT_INT32", "tensorShape": {"dim": [{"size": "4"}]}}}, "dtype": {"type": "DT_INT32"}}}, {"name": "PartitionedCall/PartitionedCall/PartitionedCall/split_13", "op": "Const", "attr": {"value": {"tensor": {"dtype": "DT_FLOAT", "tensorShape": {"dim": [{"size": "3"}, {"size": "3"}, {"size": "256"}, {"size": "256"}]}}}, "dtype": {"type": "DT_FLOAT"}}}, {"name": "unknown_26", "op": "Const", "attr": {"value": {"tensor": {"dtype": "DT_FLOAT", "tensorShape": {"dim": [{"size": "256"}]}}}, "dtype": {"type": "DT_FLOAT"}}}, {"name": "PartitionedCall/PartitionedCall/PartitionedCall/transpose_43/perm", "op": "Const", "attr": {"value": {"tensor": {"dtype": "DT_INT32", "tensorShape": {"dim": [{"size": "4"}]}}}, "dtype": {"type": "DT_INT32"}}}, {"name": "PartitionedCall/PartitionedCall/PartitionedCall/Const_12", "op": "Const", "attr": {"value": {"tensor": {"dtype": "DT_INT32", "tensorShape": {"dim": [{"size": "4"}, {"size": "2"}]}}}, "dtype": {"type": "DT_INT32"}}}, {"name": "PartitionedCall/PartitionedCall/PartitionedCall/transpose_45/perm", "op": "Const", "attr": {"value": {"tensor": {"dtype": "DT_INT32", "tensorShape": {"dim": [{"size": "4"}]}}}, "dtype": {"type": "DT_INT32"}}}, {"name": "PartitionedCall/PartitionedCall/PartitionedCall/split_14", "op": "Const", "attr": {"value": {"tensor": {"dtype": "DT_FLOAT", "tensorShape": {"dim": [{"size": "3"}, {"size": "3"}, {"size": "256"}, {"size": "256"}]}}}, "dtype": {"type": "DT_FLOAT"}}}, {"name": "unknown_28", "op": "Const", "attr": {"value": {"tensor": {"dtype": "DT_FLOAT", "tensorShape": {"dim": [{"size": "256"}]}}}, "dtype": {"type": "DT_FLOAT"}}}, {"name": "PartitionedCall/PartitionedCall/PartitionedCall/transpose_46/perm", "op": "Const", "attr": {"value": {"tensor": {"dtype": "DT_INT32", "tensorShape": {"dim": [{"size": "4"}]}}}, "dtype": {"type": "DT_INT32"}}}, {"name": "PartitionedCall/PartitionedCall/PartitionedCall/Const_9", "op": "Const", "attr": {"value": {"tensor": {"dtype": "DT_INT32", "tensorShape": {"dim": [{"size": "4"}, {"size": "2"}]}}}, "dtype": {"type": "DT_INT32"}}}, {"name": "PartitionedCall/PartitionedCall/PartitionedCall/transpose_33/perm", "op": "Const", "attr": {"value": {"tensor": {"dtype": "DT_INT32", "tensorShape": {"dim": [{"size": "4"}]}}}, "dtype": {"type": "DT_INT32"}}}, {"name": "PartitionedCall/PartitionedCall/PartitionedCall/split_10", "op": "Const", "attr": {"value": {"tensor": {"dtype": "DT_FLOAT", "tensorShape": {"dim": [{"size": "3"}, {"size": "3"}, {"size": "128"}, {"size": "256"}]}}}, "dtype": {"type": "DT_FLOAT"}}}, {"name": "unknown_20", "op": "Const", "attr": {"value": {"tensor": {"dtype": "DT_FLOAT", "tensorShape": {"dim": [{"size": "256"}]}}}, "dtype": {"type": "DT_FLOAT"}}}, {"name": "PartitionedCall/PartitionedCall/PartitionedCall/transpose_34/perm", "op": "Const", "attr": {"value": {"tensor": {"dtype": "DT_INT32", "tensorShape": {"dim": [{"size": "4"}]}}}, "dtype": {"type": "DT_INT32"}}}, {"name": "PartitionedCall/PartitionedCall/PartitionedCall/Const_10", "op": "Const", "attr": {"value": {"tensor": {"dtype": "DT_INT32", "tensorShape": {"dim": [{"size": "4"}, {"size": "2"}]}}}, "dtype": {"type": "DT_INT32"}}}, {"name": "PartitionedCall/PartitionedCall/PartitionedCall/transpose_36/perm", "op": "Const", "attr": {"value": {"tensor": {"dtype": "DT_INT32", "tensorShape": {"dim": [{"size": "4"}]}}}, "dtype": {"type": "DT_INT32"}}}, {"name": "PartitionedCall/PartitionedCall/PartitionedCall/split_11", "op": "Const", "attr": {"value": {"tensor": {"dtype": "DT_FLOAT", "tensorShape": {"dim": [{"size": "3"}, {"size": "3"}, {"size": "256"}, {"size": "256"}]}}}, "dtype": {"type": "DT_FLOAT"}}}, {"name": "unknown_22", "op": "Const", "attr": {"value": {"tensor": {"dtype": "DT_FLOAT", "tensorShape": {"dim": [{"size": "256"}]}}}, "dtype": {"type": "DT_FLOAT"}}}, {"name": "PartitionedCall/PartitionedCall/PartitionedCall/transpose_37/perm", "op": "Const", "attr": {"value": {"tensor": {"dtype": "DT_INT32", "tensorShape": {"dim": [{"size": "4"}]}}}, "dtype": {"type": "DT_INT32"}}}, {"name": "PartitionedCall/PartitionedCall/PartitionedCall/Const_7", "op": "Const", "attr": {"value": {"tensor": {"dtype": "DT_INT32", "tensorShape": {"dim": [{"size": "4"}, {"size": "2"}]}}}, "dtype": {"type": "DT_INT32"}}}, {"name": "PartitionedCall/PartitionedCall/PartitionedCall/transpose_27/perm", "op": "Const", "attr": {"value": {"tensor": {"dtype": "DT_INT32", "tensorShape": {"dim": [{"size": "4"}]}}}, "dtype": {"type": "DT_INT32"}}}, {"name": "PartitionedCall/PartitionedCall/PartitionedCall/split_8", "op": "Const", "attr": {"value": {"tensor": {"dtype": "DT_FLOAT", "tensorShape": {"dim": [{"size": "3"}, {"size": "3"}, {"size": "128"}, {"size": "128"}]}}}, "dtype": {"type": "DT_FLOAT"}}}, {"name": "unknown_16", "op": "Const", "attr": {"value": {"tensor": {"dtype": "DT_FLOAT", "tensorShape": {"dim": [{"size": "128"}]}}}, "dtype": {"type": "DT_FLOAT"}}}, {"name": "PartitionedCall/PartitionedCall/PartitionedCall/transpose_28/perm", "op": "Const", "attr": {"value": {"tensor": {"dtype": "DT_INT32", "tensorShape": {"dim": [{"size": "4"}]}}}, "dtype": {"type": "DT_INT32"}}}, {"name": "PartitionedCall/PartitionedCall/PartitionedCall/Const_8", "op": "Const", "attr": {"value": {"tensor": {"dtype": "DT_INT32", "tensorShape": {"dim": [{"size": "4"}, {"size": "2"}]}}}, "dtype": {"type": "DT_INT32"}}}, {"name": "PartitionedCall/PartitionedCall/PartitionedCall/transpose_30/perm", "op": "Const", "attr": {"value": {"tensor": {"dtype": "DT_INT32", "tensorShape": {"dim": [{"size": "4"}]}}}, "dtype": {"type": "DT_INT32"}}}, {"name": "PartitionedCall/PartitionedCall/PartitionedCall/split_9", "op": "Const", "attr": {"value": {"tensor": {"dtype": "DT_FLOAT", "tensorShape": {"dim": [{"size": "3"}, {"size": "3"}, {"size": "128"}, {"size": "128"}]}}}, "dtype": {"type": "DT_FLOAT"}}}, {"name": "unknown_18", "op": "Const", "attr": {"value": {"tensor": {"dtype": "DT_FLOAT", "tensorShape": {"dim": [{"size": "128"}]}}}, "dtype": {"type": "DT_FLOAT"}}}, {"name": "PartitionedCall/PartitionedCall/PartitionedCall/transpose_31/perm", "op": "Const", "attr": {"value": {"tensor": {"dtype": "DT_INT32", "tensorShape": {"dim": [{"size": "4"}]}}}, "dtype": {"type": "DT_INT32"}}}, {"name": "PartitionedCall/PartitionedCall/PartitionedCall/Const_5", "op": "Const", "attr": {"value": {"tensor": {"dtype": "DT_INT32", "tensorShape": {"dim": [{"size": "4"}, {"size": "2"}]}}}, "dtype": {"type": "DT_INT32"}}}, {"name": "PartitionedCall/PartitionedCall/PartitionedCall/transpose_18/perm", "op": "Const", "attr": {"value": {"tensor": {"dtype": "DT_INT32", "tensorShape": {"dim": [{"size": "4"}]}}}, "dtype": {"type": "DT_INT32"}}}, {"name": "PartitionedCall/PartitionedCall/PartitionedCall/split_5", "op": "Const", "attr": {"value": {"tensor": {"dtype": "DT_FLOAT", "tensorShape": {"dim": [{"size": "3"}, {"size": "3"}, {"size": "64"}, {"size": "128"}]}}}, "dtype": {"type": "DT_FLOAT"}}}, {"name": "unknown_10", "op": "Const", "attr": {"value": {"tensor": {"dtype": "DT_FLOAT", "tensorShape": {"dim": [{"size": "128"}]}}}, "dtype": {"type": "DT_FLOAT"}}}, {"name": "PartitionedCall/PartitionedCall/PartitionedCall/transpose_19/perm", "op": "Const", "attr": {"value": {"tensor": {"dtype": "DT_INT32", "tensorShape": {"dim": [{"size": "4"}]}}}, "dtype": {"type": "DT_INT32"}}}, {"name": "PartitionedCall/PartitionedCall/PartitionedCall/Const_6", "op": "Const", "attr": {"value": {"tensor": {"dtype": "DT_INT32", "tensorShape": {"dim": [{"size": "4"}, {"size": "2"}]}}}, "dtype": {"type": "DT_INT32"}}}, {"name": "PartitionedCall/PartitionedCall/PartitionedCall/transpose_21/perm", "op": "Const", "attr": {"value": {"tensor": {"dtype": "DT_INT32", "tensorShape": {"dim": [{"size": "4"}]}}}, "dtype": {"type": "DT_INT32"}}}, {"name": "PartitionedCall/PartitionedCall/PartitionedCall/split_6", "op": "Const", "attr": {"value": {"tensor": {"dtype": "DT_FLOAT", "tensorShape": {"dim": [{"size": "3"}, {"size": "3"}, {"size": "128"}, {"size": "128"}]}}}, "dtype": {"type": "DT_FLOAT"}}}, {"name": "unknown_12", "op": "Const", "attr": {"value": {"tensor": {"dtype": "DT_FLOAT", "tensorShape": {"dim": [{"size": "128"}]}}}, "dtype": {"type": "DT_FLOAT"}}}, {"name": "PartitionedCall/PartitionedCall/PartitionedCall/transpose_22/perm", "op": "Const", "attr": {"value": {"tensor": {"dtype": "DT_INT32", "tensorShape": {"dim": [{"size": "4"}]}}}, "dtype": {"type": "DT_INT32"}}}, {"name": "PartitionedCall/PartitionedCall/PartitionedCall/Const_3", "op": "Const", "attr": {"value": {"tensor": {"dtype": "DT_INT32", "tensorShape": {"dim": [{"size": "4"}, {"size": "2"}]}}}, "dtype": {"type": "DT_INT32"}}}, {"name": "PartitionedCall/PartitionedCall/PartitionedCall/transpose_12/perm", "op": "Const", "attr": {"value": {"tensor": {"dtype": "DT_INT32", "tensorShape": {"dim": [{"size": "4"}]}}}, "dtype": {"type": "DT_INT32"}}}, {"name": "PartitionedCall/PartitionedCall/PartitionedCall/split_3", "op": "Const", "attr": {"value": {"tensor": {"dtype": "DT_FLOAT", "tensorShape": {"dim": [{"size": "3"}, {"size": "3"}, {"size": "64"}, {"size": "64"}]}}}, "dtype": {"type": "DT_FLOAT"}}}, {"name": "unknown_6", "op": "Const", "attr": {"value": {"tensor": {"dtype": "DT_FLOAT", "tensorShape": {"dim": [{"size": "64"}]}}}, "dtype": {"type": "DT_FLOAT"}}}, {"name": "PartitionedCall/PartitionedCall/PartitionedCall/transpose_13/perm", "op": "Const", "attr": {"value": {"tensor": {"dtype": "DT_INT32", "tensorShape": {"dim": [{"size": "4"}]}}}, "dtype": {"type": "DT_INT32"}}}, {"name": "PartitionedCall/PartitionedCall/PartitionedCall/Const_4", "op": "Const", "attr": {"value": {"tensor": {"dtype": "DT_INT32", "tensorShape": {"dim": [{"size": "4"}, {"size": "2"}]}}}, "dtype": {"type": "DT_INT32"}}}, {"name": "PartitionedCall/PartitionedCall/PartitionedCall/transpose_15/perm", "op": "Const", "attr": {"value": {"tensor": {"dtype": "DT_INT32", "tensorShape": {"dim": [{"size": "4"}]}}}, "dtype": {"type": "DT_INT32"}}}, {"name": "PartitionedCall/PartitionedCall/PartitionedCall/split_4", "op": "Const", "attr": {"value": {"tensor": {"dtype": "DT_FLOAT", "tensorShape": {"dim": [{"size": "3"}, {"size": "3"}, {"size": "64"}, {"size": "64"}]}}}, "dtype": {"type": "DT_FLOAT"}}}, {"name": "unknown_8", "op": "Const", "attr": {"value": {"tensor": {"dtype": "DT_FLOAT", "tensorShape": {"dim": [{"size": "64"}]}}}, "dtype": {"type": "DT_FLOAT"}}}, {"name": "PartitionedCall/PartitionedCall/PartitionedCall/transpose_16/perm", "op": "Const", "attr": {"value": {"tensor": {"dtype": "DT_INT32", "tensorShape": {"dim": [{"size": "4"}]}}}, "dtype": {"type": "DT_INT32"}}}, {"name": "PartitionedCall/PartitionedCall/PartitionedCall/Const_1", "op": "Const", "attr": {"value": {"tensor": {"dtype": "DT_INT32", "tensorShape": {"dim": [{"size": "4"}, {"size": "2"}]}}}, "dtype": {"type": "DT_INT32"}}}, {"name": "PartitionedCall/PartitionedCall/PartitionedCall/transpose_6/perm", "op": "Const", "attr": {"value": {"tensor": {"dtype": "DT_INT32", "tensorShape": {"dim": [{"size": "4"}]}}}, "dtype": {"type": "DT_INT32"}}}, {"name": "PartitionedCall/PartitionedCall/PartitionedCall/split_1", "op": "Const", "attr": {"value": {"tensor": {"dtype": "DT_FLOAT", "tensorShape": {"dim": [{"size": "3"}, {"size": "3"}, {"size": "64"}, {"size": "64"}]}}}, "dtype": {"type": "DT_FLOAT"}}}, {"name": "unknown_2", "op": "Const", "attr": {"value": {"tensor": {"dtype": "DT_FLOAT", "tensorShape": {"dim": [{"size": "64"}]}}}, "dtype": {"type": "DT_FLOAT"}}}, {"name": "PartitionedCall/PartitionedCall/PartitionedCall/transpose_7/perm", "op": "Const", "attr": {"value": {"tensor": {"dtype": "DT_INT32", "tensorShape": {"dim": [{"size": "4"}]}}}, "dtype": {"type": "DT_INT32"}}}, {"name": "PartitionedCall/PartitionedCall/PartitionedCall/Const_2", "op": "Const", "attr": {"value": {"tensor": {"dtype": "DT_INT32", "tensorShape": {"dim": [{"size": "4"}, {"size": "2"}]}}}, "dtype": {"type": "DT_INT32"}}}, {"name": "PartitionedCall/PartitionedCall/PartitionedCall/transpose_9/perm", "op": "Const", "attr": {"value": {"tensor": {"dtype": "DT_INT32", "tensorShape": {"dim": [{"size": "4"}]}}}, "dtype": {"type": "DT_INT32"}}}, {"name": "PartitionedCall/PartitionedCall/PartitionedCall/split_2", "op": "Const", "attr": {"value": {"tensor": {"dtype": "DT_FLOAT", "tensorShape": {"dim": [{"size": "3"}, {"size": "3"}, {"size": "64"}, {"size": "64"}]}}}, "dtype": {"type": "DT_FLOAT"}}}, {"name": "unknown_4", "op": "Const", "attr": {"value": {"tensor": {"dtype": "DT_FLOAT", "tensorShape": {"dim": [{"size": "64"}]}}}, "dtype": {"type": "DT_FLOAT"}}}, {"name": "PartitionedCall/PartitionedCall/PartitionedCall/transpose_10/perm", "op": "Const", "attr": {"value": {"tensor": {"dtype": "DT_INT32", "tensorShape": {"dim": [{"size": "4"}]}}}, "dtype": {"type": "DT_INT32"}}}, {"name": "PartitionedCall/transpose/perm", "op": "Const", "attr": {"value": {"tensor": {"dtype": "DT_INT32", "tensorShape": {"dim": [{"size": "4"}]}}}, "dtype": {"type": "DT_INT32"}}}, {"name": "PartitionedCall/PartitionedCall/PartitionedCall/Const", "op": "Const", "attr": {"value": {"tensor": {"dtype": "DT_INT32", "tensorShape": {"dim": [{"size": "4"}, {"size": "2"}]}}}, "dtype": {"type": "DT_INT32"}}}, {"name": "PartitionedCall/PartitionedCall/PartitionedCall/transpose_1/perm", "op": "Const", "attr": {"value": {"tensor": {"dtype": "DT_INT32", "tensorShape": {"dim": [{"size": "4"}]}}}, "dtype": {"type": "DT_INT32"}}}, {"name": "PartitionedCall/PartitionedCall/PartitionedCall/split", "op": "Const", "attr": {"value": {"tensor": {"dtype": "DT_FLOAT", "tensorShape": {"dim": [{"size": "7"}, {"size": "7"}, {"size": "3"}, {"size": "64"}]}}}, "dtype": {"type": "DT_FLOAT"}}}, {"name": "unknown_0", "op": "Const", "attr": {"value": {"tensor": {"dtype": "DT_FLOAT", "tensorShape": {"dim": [{"size": "64"}]}}}, "dtype": {"type": "DT_FLOAT"}}}, {"name": "PartitionedCall/PartitionedCall/PartitionedCall/transpose_2/perm", "op": "Const", "attr": {"value": {"tensor": {"dtype": "DT_INT32", "tensorShape": {"dim": [{"size": "4"}]}}}, "dtype": {"type": "DT_INT32"}}}, {"name": "PartitionedCall/PartitionedCall/PartitionedCall/PadV2/paddings", "op": "Const", "attr": {"value": {"tensor": {"dtype": "DT_INT64", "tensorShape": {"dim": [{"size": "4"}, {"size": "2"}]}}}, "dtype": {"type": "DT_INT64"}}}, {"name": "PartitionedCall/PartitionedCall/PartitionedCall/PadV2/constant_values", "op": "Const", "attr": {"value": {"tensor": {"dtype": "DT_FLOAT", "tensorShape": {}}}, "dtype": {"type": "DT_FLOAT"}}}, {"name": "PartitionedCall/PartitionedCall/PartitionedCall/transpose_3/perm", "op": "Const", "attr": {"value": {"tensor": {"dtype": "DT_INT32", "tensorShape": {"dim": [{"size": "4"}]}}}, "dtype": {"type": "DT_INT32"}}}, {"name": "PartitionedCall/PartitionedCall/PartitionedCall/transpose_4/perm", "op": "Const", "attr": {"value": {"tensor": {"dtype": "DT_INT32", "tensorShape": {"dim": [{"size": "4"}]}}}, "dtype": {"type": "DT_INT32"}}}, {"name": "PartitionedCall/PartitionedCall/PartitionedCall/transpose_24/perm", "op": "Const", "attr": {"value": {"tensor": {"dtype": "DT_INT32", "tensorShape": {"dim": [{"size": "4"}]}}}, "dtype": {"type": "DT_INT32"}}}, {"name": "PartitionedCall/PartitionedCall/PartitionedCall/split_7", "op": "Const", "attr": {"value": {"tensor": {"dtype": "DT_FLOAT", "tensorShape": {"dim": [{"size": "1"}, {"size": "1"}, {"size": "64"}, {"size": "128"}]}}}, "dtype": {"type": "DT_FLOAT"}}}, {"name": "unknown_14", "op": "Const", "attr": {"value": {"tensor": {"dtype": "DT_FLOAT", "tensorShape": {"dim": [{"size": "128"}]}}}, "dtype": {"type": "DT_FLOAT"}}}, {"name": "PartitionedCall/PartitionedCall/PartitionedCall/transpose_25/perm", "op": "Const", "attr": {"value": {"tensor": {"dtype": "DT_INT32", "tensorShape": {"dim": [{"size": "4"}]}}}, "dtype": {"type": "DT_INT32"}}}, {"name": "PartitionedCall/PartitionedCall/PartitionedCall/transpose_39/perm", "op": "Const", "attr": {"value": {"tensor": {"dtype": "DT_INT32", "tensorShape": {"dim": [{"size": "4"}]}}}, "dtype": {"type": "DT_INT32"}}}, {"name": "PartitionedCall/PartitionedCall/PartitionedCall/split_12", "op": "Const", "attr": {"value": {"tensor": {"dtype": "DT_FLOAT", "tensorShape": {"dim": [{"size": "1"}, {"size": "1"}, {"size": "128"}, {"size": "256"}]}}}, "dtype": {"type": "DT_FLOAT"}}}, {"name": "unknown_24", "op": "Const", "attr": {"value": {"tensor": {"dtype": "DT_FLOAT", "tensorShape": {"dim": [{"size": "256"}]}}}, "dtype": {"type": "DT_FLOAT"}}}, {"name": "PartitionedCall/PartitionedCall/PartitionedCall/transpose_40/perm", "op": "Const", "attr": {"value": {"tensor": {"dtype": "DT_INT32", "tensorShape": {"dim": [{"size": "4"}]}}}, "dtype": {"type": "DT_INT32"}}}, {"name": "PartitionedCall/PartitionedCall/PartitionedCall/transpose_54/perm", "op": "Const", "attr": {"value": {"tensor": {"dtype": "DT_INT32", "tensorShape": {"dim": [{"size": "4"}]}}}, "dtype": {"type": "DT_INT32"}}}, {"name": "PartitionedCall/PartitionedCall/PartitionedCall/split_17", "op": "Const", "attr": {"value": {"tensor": {"dtype": "DT_FLOAT", "tensorShape": {"dim": [{"size": "1"}, {"size": "1"}, {"size": "256"}, {"size": "512"}]}}}, "dtype": {"type": "DT_FLOAT"}}}, {"name": "unknown_34", "op": "Const", "attr": {"value": {"tensor": {"dtype": "DT_FLOAT", "tensorShape": {"dim": [{"size": "512"}]}}}, "dtype": {"type": "DT_FLOAT"}}}, {"name": "PartitionedCall/PartitionedCall/PartitionedCall/transpose_55/perm", "op": "Const", "attr": {"value": {"tensor": {"dtype": "DT_INT32", "tensorShape": {"dim": [{"size": "4"}]}}}, "dtype": {"type": "DT_INT32"}}}, {"name": "ConstantFolding/PartitionedCall/PartitionedCall/PartitionedCall/split_20-folded-1", "op": "Const", "attr": {"value": {"tensor": {"dtype": "DT_INT32", "tensorShape": {"dim": [{"size": "2"}]}}}, "dtype": {"type": "DT_INT32"}}}, {"name": "PartitionedCall/PartitionedCall/PartitionedCall/strided_slice_6/stack", "op": "Const", "attr": {"value": {"tensor": {"dtype": "DT_INT32", "tensorShape": {"dim": [{"size": "1"}]}}}, "dtype": {"type": "DT_INT32"}}}, {"name": "PartitionedCall/PartitionedCall/PartitionedCall/strided_slice_6/stack_1", "op": "Const", "attr": {"value": {"tensor": {"dtype": "DT_INT32", "tensorShape": {"dim": [{"size": "1"}]}}}, "dtype": {"type": "DT_INT32"}}}, {"name": "PartitionedCall/PartitionedCall/PartitionedCall/strided_slice_6/stack_2", "op": "Const", "attr": {"value": {"tensor": {"dtype": "DT_INT32", "tensorShape": {"dim": [{"size": "1"}]}}}, "dtype": {"type": "DT_INT32"}}}, {"name": "PartitionedCall/PartitionedCall/PartitionedCall/Const_19", "op": "Const", "attr": {"value": {"tensor": {"dtype": "DT_INT32", "tensorShape": {"dim": [{"size": "1"}]}}}, "dtype": {"type": "DT_INT32"}}}, {"name": "PartitionedCall/PartitionedCall/PartitionedCall/flatten/strided_slice/stack", "op": "Const", "attr": {"value": {"tensor": {"dtype": "DT_INT32", "tensorShape": {"dim": [{"size": "1"}]}}}, "dtype": {"type": "DT_INT32"}}}, {"name": "PartitionedCall/PartitionedCall/PartitionedCall/flatten/strided_slice/stack_1", "op": "Const", "attr": {"value": {"tensor": {"dtype": "DT_INT32", "tensorShape": {"dim": [{"size": "1"}]}}}, "dtype": {"type": "DT_INT32"}}}, {"name": "PartitionedCall/PartitionedCall/PartitionedCall/flatten/strided_slice/stack_2", "op": "Const", "attr": {"value": {"tensor": {"dtype": "DT_INT32", "tensorShape": {"dim": [{"size": "1"}]}}}, "dtype": {"type": "DT_INT32"}}}, {"name": "PartitionedCall/PartitionedCall/PartitionedCall/flatten/Reshape/shape/1", "op": "Const", "attr": {"value": {"tensor": {"dtype": "DT_INT32", "tensorShape": {}}}, "dtype": {"type": "DT_INT32"}}}, {"name": "PartitionedCall/PartitionedCall/PartitionedCall/transpose_62", "op": "Const", "attr": {"value": {"tensor": {"dtype": "DT_FLOAT", "tensorShape": {"dim": [{"size": "512"}, {"size": "33"}]}}}, "dtype": {"type": "DT_FLOAT"}}}, {"name": "PartitionedCall/PartitionedCall/PartitionedCall/mul_1", "op": "Const", "attr": {"value": {"tensor": {"dtype": "DT_FLOAT", "tensorShape": {"dim": [{"size": "33"}]}}}, "dtype": {"type": "DT_FLOAT"}}}, {"name": "x", "op": "Placeholder", "attr": {"shape": {"shape": {"dim": [{"size": "-1"}, {"size": "224"}, {"size": "224"}, {"size": "3"}]}}, "dtype": {"type": "DT_FLOAT"}}}, {"name": "PartitionedCall/transpose", "op": "Transpose", "input": ["x", "PartitionedCall/transpose/perm"], "attr": {"Tperm": {"type": "DT_INT32"}, "_input_shapes": {"list": {"shape": [{"dim": [{"size": "-3"}, {"size": "-4"}, {"size": "-5"}, {"size": "-6"}]}, {"dim": [{"size": "4"}]}]}}, "T": {"type": "DT_FLOAT"}}}, {"name": "PartitionedCall/PartitionedCall/PartitionedCall/Pad", "op": "Pad", "input": ["PartitionedCall/transpose", "PartitionedCall/PartitionedCall/PartitionedCall/Const"], "attr": {"Tpaddings": {"type": "DT_INT32"}, "T": {"type": "DT_FLOAT"}}}, {"name": "PartitionedCall/PartitionedCall/PartitionedCall/transpose_1", "op": "Transpose", "input": ["PartitionedCall/PartitionedCall/PartitionedCall/Pad", "PartitionedCall/PartitionedCall/PartitionedCall/transpose_1/perm"], "attr": {"Tperm": {"type": "DT_INT32"}, "_input_shapes": {"list": {"shape": [{"dim": [{"size": "-3"}, {"size": "-6"}, {"size": "-7"}, {"size": "-8"}]}, {"dim": [{"size": "4"}]}]}}, "T": {"type": "DT_FLOAT"}}}, {"name": "PartitionedCall/PartitionedCall/PartitionedCall/Add", "op": "_FusedConv2D", "input": ["PartitionedCall/PartitionedCall/PartitionedCall/transpose_1", "PartitionedCall/PartitionedCall/PartitionedCall/split", "unknown_0"], "device": "/device:CPU:0", "attr": {"num_host_args": {"i": "0"}, "data_format": {"s": "TkhXQw=="}, "filter_format": {"s": "SFdJTw=="}, "_input_shapes": {"list": {"shape": [{"dim": [{"size": "-3"}, {"size": "-7"}, {"size": "-8"}, {"size": "-6"}]}, {"dim": [{"size": "7"}, {"size": "7"}, {"size": "3"}, {"size": "64"}]}]}}, "fused_ops": {"list": {"s": ["Qmlhc0FkZA=="]}}, "num_args": {"i": "1"}, "strides": {"list": {"i": ["1", "2", "2", "1"]}}, "TArgs": {"list": {"type": ["DT_FLOAT"]}}, "padding": {"s": "VkFMSUQ="}, "use_cudnn_on_gpu": {"b": true}, "leakyrelu_alpha": {"f": 0.2}, "epsilon": {"f": 0.0}, "T": {"type": "DT_FLOAT"}, "explicit_paddings": {"list": {}}, "dilations": {"list": {"i": ["1", "1", "1", "1"]}}}}, {"name": "PartitionedCall/PartitionedCall/PartitionedCall/transpose_2", "op": "Transpose", "input": ["PartitionedCall/PartitionedCall/PartitionedCall/Add", "PartitionedCall/PartitionedCall/PartitionedCall/transpose_2/perm"], "attr": {"Tperm": {"type": "DT_INT32"}, "_input_shapes": {"list": {"shape": [{"dim": [{"size": "-3"}, {"size": "-9"}, {"size": "-10"}, {"size": "64"}]}, {"dim": [{"size": "4"}]}]}}, "T": {"type": "DT_FLOAT"}}}, {"name": "PartitionedCall/PartitionedCall/PartitionedCall/onnx_tf_prefix_/relu/Relu", "op": "Relu", "input": ["PartitionedCall/PartitionedCall/PartitionedCall/transpose_2"], "attr": {"T": {"type": "DT_FLOAT"}}}, {"name": "PartitionedCall/PartitionedCall/PartitionedCall/PadV2", "op": "PadV2", "input": ["PartitionedCall/PartitionedCall/PartitionedCall/onnx_tf_prefix_/relu/Relu", "PartitionedCall/PartitionedCall/PartitionedCall/PadV2/paddings", "PartitionedCall/PartitionedCall/PartitionedCall/PadV2/constant_values"], "attr": {"Tpaddings": {"type": "DT_INT64"}, "T": {"type": "DT_FLOAT"}}}, {"name": "PartitionedCall/PartitionedCall/PartitionedCall/transpose_3", "op": "Transpose", "input": ["PartitionedCall/PartitionedCall/PartitionedCall/PadV2", "PartitionedCall/PartitionedCall/PartitionedCall/transpose_3/perm"], "attr": {"Tperm": {"type": "DT_INT32"}, "_input_shapes": {"list": {"shape": [{"dim": [{"size": "-3"}, {"size": "64"}, {"size": "-11"}, {"size": "-12"}]}, {"dim": [{"size": "4"}]}]}}, "T": {"type": "DT_FLOAT"}}}, {"name": "PartitionedCall/PartitionedCall/PartitionedCall/MaxPool2d", "op": "MaxPool", "input": ["PartitionedCall/PartitionedCall/PartitionedCall/transpose_3"], "attr": {"ksize": {"list": {"i": ["1", "3", "3", "1"]}}, "data_format": {"s": "TkhXQw=="}, "T": {"type": "DT_FLOAT"}, "explicit_paddings": {"list": {}}, "padding": {"s": "VkFMSUQ="}, "strides": {"list": {"i": ["1", "2", "2", "1"]}}}}, {"name": "PartitionedCall/PartitionedCall/PartitionedCall/transpose_4", "op": "Transpose", "input": ["PartitionedCall/PartitionedCall/PartitionedCall/MaxPool2d", "PartitionedCall/PartitionedCall/PartitionedCall/transpose_4/perm"], "attr": {"Tperm": {"type": "DT_INT32"}, "_input_shapes": {"list": {"shape": [{"dim": [{"size": "-3"}, {"size": "-13"}, {"size": "-14"}, {"size": "64"}]}, {"dim": [{"size": "4"}]}]}}, "T": {"type": "DT_FLOAT"}}}, {"name": "PartitionedCall/PartitionedCall/PartitionedCall/Pad_1", "op": "Pad", "input": ["PartitionedCall/PartitionedCall/PartitionedCall/transpose_4", "PartitionedCall/PartitionedCall/PartitionedCall/Const_1"], "attr": {"Tpaddings": {"type": "DT_INT32"}, "T": {"type": "DT_FLOAT"}}}, {"name": "PartitionedCall/PartitionedCall/PartitionedCall/transpose_6", "op": "Transpose", "input": ["PartitionedCall/PartitionedCall/PartitionedCall/Pad_1", "PartitionedCall/PartitionedCall/PartitionedCall/transpose_6/perm"], "attr": {"Tperm": {"type": "DT_INT32"}, "_input_shapes": {"list": {"shape": [{"dim": [{"size": "-3"}, {"size": "64"}, {"size": "-15"}, {"size": "-16"}]}, {"dim": [{"size": "4"}]}]}}, "T": {"type": "DT_FLOAT"}}}, {"name": "PartitionedCall/PartitionedCall/PartitionedCall/Add_2", "op": "_FusedConv2D", "input": ["PartitionedCall/PartitionedCall/PartitionedCall/transpose_6", "PartitionedCall/PartitionedCall/PartitionedCall/split_1", "unknown_2"], "device": "/device:CPU:0", "attr": {"num_host_args": {"i": "0"}, "data_format": {"s": "TkhXQw=="}, "filter_format": {"s": "SFdJTw=="}, "_input_shapes": {"list": {"shape": [{"dim": [{"size": "-3"}, {"size": "-15"}, {"size": "-16"}, {"size": "64"}]}, {"dim": [{"size": "3"}, {"size": "3"}, {"size": "64"}, {"size": "64"}]}]}}, "fused_ops": {"list": {"s": ["Qmlhc0FkZA=="]}}, "num_args": {"i": "1"}, "strides": {"list": {"i": ["1", "1", "1", "1"]}}, "TArgs": {"list": {"type": ["DT_FLOAT"]}}, "padding": {"s": "VkFMSUQ="}, "use_cudnn_on_gpu": {"b": true}, "leakyrelu_alpha": {"f": 0.2}, "epsilon": {"f": 0.0}, "T": {"type": "DT_FLOAT"}, "explicit_paddings": {"list": {}}, "dilations": {"list": {"i": ["1", "1", "1", "1"]}}}}, {"name": "PartitionedCall/PartitionedCall/PartitionedCall/transpose_7", "op": "Transpose", "input": ["PartitionedCall/PartitionedCall/PartitionedCall/Add_2", "PartitionedCall/PartitionedCall/PartitionedCall/transpose_7/perm"], "attr": {"Tperm": {"type": "DT_INT32"}, "_input_shapes": {"list": {"shape": [{"dim": [{"size": "-3"}, {"size": "-17"}, {"size": "-18"}, {"size": "64"}]}, {"dim": [{"size": "4"}]}]}}, "T": {"type": "DT_FLOAT"}}}, {"name": "PartitionedCall/PartitionedCall/PartitionedCall/onnx_tf_prefix_/layer1/layer1.0/relu/Relu", "op": "Relu", "input": ["PartitionedCall/PartitionedCall/PartitionedCall/transpose_7"], "attr": {"T": {"type": "DT_FLOAT"}}}, {"name": "PartitionedCall/PartitionedCall/PartitionedCall/Pad_2", "op": "Pad", "input": ["PartitionedCall/PartitionedCall/PartitionedCall/onnx_tf_prefix_/layer1/layer1.0/relu/Relu", "PartitionedCall/PartitionedCall/PartitionedCall/Const_2"], "attr": {"Tpaddings": {"type": "DT_INT32"}, "T": {"type": "DT_FLOAT"}}}, {"name": "PartitionedCall/PartitionedCall/PartitionedCall/transpose_9", "op": "Transpose", "input": ["PartitionedCall/PartitionedCall/PartitionedCall/Pad_2", "PartitionedCall/PartitionedCall/PartitionedCall/transpose_9/perm"], "attr": {"Tperm": {"type": "DT_INT32"}, "_input_shapes": {"list": {"shape": [{"dim": [{"size": "-3"}, {"size": "64"}, {"size": "-19"}, {"size": "-20"}]}, {"dim": [{"size": "4"}]}]}}, "T": {"type": "DT_FLOAT"}}}, {"name": "PartitionedCall/PartitionedCall/PartitionedCall/Add_3", "op": "_FusedConv2D", "input": ["PartitionedCall/PartitionedCall/PartitionedCall/transpose_9", "PartitionedCall/PartitionedCall/PartitionedCall/split_2", "unknown_4"], "device": "/device:CPU:0", "attr": {"num_host_args": {"i": "0"}, "data_format": {"s": "TkhXQw=="}, "filter_format": {"s": "SFdJTw=="}, "_input_shapes": {"list": {"shape": [{"dim": [{"size": "-3"}, {"size": "-19"}, {"size": "-20"}, {"size": "64"}]}, {"dim": [{"size": "3"}, {"size": "3"}, {"size": "64"}, {"size": "64"}]}]}}, "fused_ops": {"list": {"s": ["Qmlhc0FkZA=="]}}, "num_args": {"i": "1"}, "strides": {"list": {"i": ["1", "1", "1", "1"]}}, "TArgs": {"list": {"type": ["DT_FLOAT"]}}, "padding": {"s": "VkFMSUQ="}, "use_cudnn_on_gpu": {"b": true}, "leakyrelu_alpha": {"f": 0.2}, "epsilon": {"f": 0.0}, "T": {"type": "DT_FLOAT"}, "explicit_paddings": {"list": {}}, "dilations": {"list": {"i": ["1", "1", "1", "1"]}}}}, {"name": "PartitionedCall/PartitionedCall/PartitionedCall/transpose_10", "op": "Transpose", "input": ["PartitionedCall/PartitionedCall/PartitionedCall/Add_3", "PartitionedCall/PartitionedCall/PartitionedCall/transpose_10/perm"], "attr": {"Tperm": {"type": "DT_INT32"}, "_input_shapes": {"list": {"shape": [{"dim": [{"size": "-3"}, {"size": "-21"}, {"size": "-22"}, {"size": "64"}]}, {"dim": [{"size": "4"}]}]}}, "T": {"type": "DT_FLOAT"}}}, {"name": "PartitionedCall/PartitionedCall/PartitionedCall/onnx_tf_prefix_/layer1/layer1.0/Add", "op": "AddV2", "input": ["PartitionedCall/PartitionedCall/PartitionedCall/transpose_10", "PartitionedCall/PartitionedCall/PartitionedCall/transpose_4"], "attr": {"T": {"type": "DT_FLOAT"}}}, {"name": "PartitionedCall/PartitionedCall/PartitionedCall/onnx_tf_prefix_/layer1/layer1.0/relu_1/Relu", "op": "Relu", "input": ["PartitionedCall/PartitionedCall/PartitionedCall/onnx_tf_prefix_/layer1/layer1.0/Add"], "attr": {"T": {"type": "DT_FLOAT"}}}, {"name": "PartitionedCall/PartitionedCall/PartitionedCall/Pad_3", "op": "Pad", "input": ["PartitionedCall/PartitionedCall/PartitionedCall/onnx_tf_prefix_/layer1/layer1.0/relu_1/Relu", "PartitionedCall/PartitionedCall/PartitionedCall/Const_3"], "attr": {"Tpaddings": {"type": "DT_INT32"}, "T": {"type": "DT_FLOAT"}}}, {"name": "PartitionedCall/PartitionedCall/PartitionedCall/transpose_12", "op": "Transpose", "input": ["PartitionedCall/PartitionedCall/PartitionedCall/Pad_3", "PartitionedCall/PartitionedCall/PartitionedCall/transpose_12/perm"], "attr": {"Tperm": {"type": "DT_INT32"}, "_input_shapes": {"list": {"shape": [{"dim": [{"size": "-3"}, {"size": "64"}, {"size": "-25"}, {"size": "-26"}]}, {"dim": [{"size": "4"}]}]}}, "T": {"type": "DT_FLOAT"}}}, {"name": "PartitionedCall/PartitionedCall/PartitionedCall/Add_4", "op": "_FusedConv2D", "input": ["PartitionedCall/PartitionedCall/PartitionedCall/transpose_12", "PartitionedCall/PartitionedCall/PartitionedCall/split_3", "unknown_6"], "device": "/device:CPU:0", "attr": {"num_host_args": {"i": "0"}, "_input_shapes": {"list": {"shape": [{"dim": [{"size": "-3"}, {"size": "-25"}, {"size": "-26"}, {"size": "64"}]}, {"dim": [{"size": "3"}, {"size": "3"}, {"size": "64"}, {"size": "64"}]}]}}, "filter_format": {"s": "SFdJTw=="}, "data_format": {"s": "TkhXQw=="}, "strides": {"list": {"i": ["1", "1", "1", "1"]}}, "num_args": {"i": "1"}, "fused_ops": {"list": {"s": ["Qmlhc0FkZA=="]}}, "TArgs": {"list": {"type": ["DT_FLOAT"]}}, "padding": {"s": "VkFMSUQ="}, "use_cudnn_on_gpu": {"b": true}, "leakyrelu_alpha": {"f": 0.2}, "epsilon": {"f": 0.0}, "T": {"type": "DT_FLOAT"}, "explicit_paddings": {"list": {}}, "dilations": {"list": {"i": ["1", "1", "1", "1"]}}}}, {"name": "PartitionedCall/PartitionedCall/PartitionedCall/transpose_13", "op": "Transpose", "input": ["PartitionedCall/PartitionedCall/PartitionedCall/Add_4", "PartitionedCall/PartitionedCall/PartitionedCall/transpose_13/perm"], "attr": {"Tperm": {"type": "DT_INT32"}, "_input_shapes": {"list": {"shape": [{"dim": [{"size": "-3"}, {"size": "-27"}, {"size": "-28"}, {"size": "64"}]}, {"dim": [{"size": "4"}]}]}}, "T": {"type": "DT_FLOAT"}}}, {"name": "PartitionedCall/PartitionedCall/PartitionedCall/onnx_tf_prefix_/layer1/layer1.1/relu/Relu", "op": "Relu", "input": ["PartitionedCall/PartitionedCall/PartitionedCall/transpose_13"], "attr": {"T": {"type": "DT_FLOAT"}}}, {"name": "PartitionedCall/PartitionedCall/PartitionedCall/Pad_4", "op": "Pad", "input": ["PartitionedCall/PartitionedCall/PartitionedCall/onnx_tf_prefix_/layer1/layer1.1/relu/Relu", "PartitionedCall/PartitionedCall/PartitionedCall/Const_4"], "attr": {"Tpaddings": {"type": "DT_INT32"}, "T": {"type": "DT_FLOAT"}}}, {"name": "PartitionedCall/PartitionedCall/PartitionedCall/transpose_15", "op": "Transpose", "input": ["PartitionedCall/PartitionedCall/PartitionedCall/Pad_4", "PartitionedCall/PartitionedCall/PartitionedCall/transpose_15/perm"], "attr": {"Tperm": {"type": "DT_INT32"}, "_input_shapes": {"list": {"shape": [{"dim": [{"size": "-3"}, {"size": "64"}, {"size": "-29"}, {"size": "-30"}]}, {"dim": [{"size": "4"}]}]}}, "T": {"type": "DT_FLOAT"}}}, {"name": "PartitionedCall/PartitionedCall/PartitionedCall/Add_5", "op": "_FusedConv2D", "input": ["PartitionedCall/PartitionedCall/PartitionedCall/transpose_15", "PartitionedCall/PartitionedCall/PartitionedCall/split_4", "unknown_8"], "device": "/device:CPU:0", "attr": {"num_host_args": {"i": "0"}, "_input_shapes": {"list": {"shape": [{"dim": [{"size": "-3"}, {"size": "-29"}, {"size": "-30"}, {"size": "64"}]}, {"dim": [{"size": "3"}, {"size": "3"}, {"size": "64"}, {"size": "64"}]}]}}, "filter_format": {"s": "SFdJTw=="}, "data_format": {"s": "TkhXQw=="}, "fused_ops": {"list": {"s": ["Qmlhc0FkZA=="]}}, "num_args": {"i": "1"}, "strides": {"list": {"i": ["1", "1", "1", "1"]}}, "TArgs": {"list": {"type": ["DT_FLOAT"]}}, "padding": {"s": "VkFMSUQ="}, "use_cudnn_on_gpu": {"b": true}, "leakyrelu_alpha": {"f": 0.2}, "epsilon": {"f": 0.0}, "T": {"type": "DT_FLOAT"}, "explicit_paddings": {"list": {}}, "dilations": {"list": {"i": ["1", "1", "1", "1"]}}}}, {"name": "PartitionedCall/PartitionedCall/PartitionedCall/transpose_16", "op": "Transpose", "input": ["PartitionedCall/PartitionedCall/PartitionedCall/Add_5", "PartitionedCall/PartitionedCall/PartitionedCall/transpose_16/perm"], "attr": {"Tperm": {"type": "DT_INT32"}, "_input_shapes": {"list": {"shape": [{"dim": [{"size": "-3"}, {"size": "-31"}, {"size": "-32"}, {"size": "64"}]}, {"dim": [{"size": "4"}]}]}}, "T": {"type": "DT_FLOAT"}}}, {"name": "PartitionedCall/PartitionedCall/PartitionedCall/onnx_tf_prefix_/layer1/layer1.1/Add", "op": "AddV2", "input": ["PartitionedCall/PartitionedCall/PartitionedCall/transpose_16", "PartitionedCall/PartitionedCall/PartitionedCall/onnx_tf_prefix_/layer1/layer1.0/relu_1/Relu"], "attr": {"T": {"type": "DT_FLOAT"}}}, {"name": "PartitionedCall/PartitionedCall/PartitionedCall/onnx_tf_prefix_/layer1/layer1.1/relu_1/Relu", "op": "Relu", "input": ["PartitionedCall/PartitionedCall/PartitionedCall/onnx_tf_prefix_/layer1/layer1.1/Add"], "attr": {"T": {"type": "DT_FLOAT"}}}, {"name": "PartitionedCall/PartitionedCall/PartitionedCall/Pad_5", "op": "Pad", "input": ["PartitionedCall/PartitionedCall/PartitionedCall/onnx_tf_prefix_/layer1/layer1.1/relu_1/Relu", "PartitionedCall/PartitionedCall/PartitionedCall/Const_5"], "attr": {"Tpaddings": {"type": "DT_INT32"}, "T": {"type": "DT_FLOAT"}}}, {"name": "PartitionedCall/PartitionedCall/PartitionedCall/transpose_24", "op": "Transpose", "input": ["PartitionedCall/PartitionedCall/PartitionedCall/onnx_tf_prefix_/layer1/layer1.1/relu_1/Relu", "PartitionedCall/PartitionedCall/PartitionedCall/transpose_24/perm"], "attr": {"Tperm": {"type": "DT_INT32"}, "_input_shapes": {"list": {"shape": [{"dim": [{"size": "-3"}, {"size": "64"}, {"size": "-33"}, {"size": "-34"}]}, {"dim": [{"size": "4"}]}]}}, "T": {"type": "DT_FLOAT"}}}, {"name": "PartitionedCall/PartitionedCall/PartitionedCall/transpose_18", "op": "Transpose", "input": ["PartitionedCall/PartitionedCall/PartitionedCall/Pad_5", "PartitionedCall/PartitionedCall/PartitionedCall/transpose_18/perm"], "attr": {"Tperm": {"type": "DT_INT32"}, "_input_shapes": {"list": {"shape": [{"dim": [{"size": "-3"}, {"size": "64"}, {"size": "-35"}, {"size": "-36"}]}, {"dim": [{"size": "4"}]}]}}, "T": {"type": "DT_FLOAT"}}}, {"name": "PartitionedCall/PartitionedCall/PartitionedCall/Add_8", "op": "_FusedConv2D", "input": ["PartitionedCall/PartitionedCall/PartitionedCall/transpose_24", "PartitionedCall/PartitionedCall/PartitionedCall/split_7", "unknown_14"], "device": "/device:CPU:0", "attr": {"num_host_args": {"i": "0"}, "data_format": {"s": "TkhXQw=="}, "filter_format": {"s": "SFdJTw=="}, "_input_shapes": {"list": {"shape": [{"dim": [{"size": "-3"}, {"size": "-33"}, {"size": "-34"}, {"size": "64"}]}, {"dim": [{"size": "1"}, {"size": "1"}, {"size": "64"}, {"size": "128"}]}]}}, "strides": {"list": {"i": ["1", "2", "2", "1"]}}, "num_args": {"i": "1"}, "fused_ops": {"list": {"s": ["Qmlhc0FkZA=="]}}, "TArgs": {"list": {"type": ["DT_FLOAT"]}}, "padding": {"s": "VkFMSUQ="}, "use_cudnn_on_gpu": {"b": true}, "leakyrelu_alpha": {"f": 0.2}, "epsilon": {"f": 0.0}, "T": {"type": "DT_FLOAT"}, "explicit_paddings": {"list": {}}, "dilations": {"list": {"i": ["1", "1", "1", "1"]}}}}, {"name": "PartitionedCall/PartitionedCall/PartitionedCall/Add_6", "op": "_FusedConv2D", "input": ["PartitionedCall/PartitionedCall/PartitionedCall/transpose_18", "PartitionedCall/PartitionedCall/PartitionedCall/split_5", "unknown_10"], "device": "/device:CPU:0", "attr": {"num_host_args": {"i": "0"}, "data_format": {"s": "TkhXQw=="}, "filter_format": {"s": "SFdJTw=="}, "_input_shapes": {"list": {"shape": [{"dim": [{"size": "-3"}, {"size": "-35"}, {"size": "-36"}, {"size": "64"}]}, {"dim": [{"size": "3"}, {"size": "3"}, {"size": "64"}, {"size": "128"}]}]}}, "fused_ops": {"list": {"s": ["Qmlhc0FkZA=="]}}, "num_args": {"i": "1"}, "strides": {"list": {"i": ["1", "2", "2", "1"]}}, "TArgs": {"list": {"type": ["DT_FLOAT"]}}, "padding": {"s": "VkFMSUQ="}, "use_cudnn_on_gpu": {"b": true}, "leakyrelu_alpha": {"f": 0.2}, "epsilon": {"f": 0.0}, "T": {"type": "DT_FLOAT"}, "explicit_paddings": {"list": {}}, "dilations": {"list": {"i": ["1", "1", "1", "1"]}}}}, {"name": "PartitionedCall/PartitionedCall/PartitionedCall/transpose_25", "op": "Transpose", "input": ["PartitionedCall/PartitionedCall/PartitionedCall/Add_8", "PartitionedCall/PartitionedCall/PartitionedCall/transpose_25/perm"], "attr": {"Tperm": {"type": "DT_INT32"}, "_input_shapes": {"list": {"shape": [{"dim": [{"size": "-3"}, {"size": "-43"}, {"size": "-44"}, {"size": "128"}]}, {"dim": [{"size": "4"}]}]}}, "T": {"type": "DT_FLOAT"}}}, {"name": "PartitionedCall/PartitionedCall/PartitionedCall/transpose_19", "op": "Transpose", "input": ["PartitionedCall/PartitionedCall/PartitionedCall/Add_6", "PartitionedCall/PartitionedCall/PartitionedCall/transpose_19/perm"], "attr": {"Tperm": {"type": "DT_INT32"}, "_input_shapes": {"list": {"shape": [{"dim": [{"size": "-3"}, {"size": "-37"}, {"size": "-38"}, {"size": "128"}]}, {"dim": [{"size": "4"}]}]}}, "T": {"type": "DT_FLOAT"}}}, {"name": "PartitionedCall/PartitionedCall/PartitionedCall/onnx_tf_prefix_/layer2/layer2.0/relu/Relu", "op": "Relu", "input": ["PartitionedCall/PartitionedCall/PartitionedCall/transpose_19"], "attr": {"T": {"type": "DT_FLOAT"}}}, {"name": "PartitionedCall/PartitionedCall/PartitionedCall/Pad_6", "op": "Pad", "input": ["PartitionedCall/PartitionedCall/PartitionedCall/onnx_tf_prefix_/layer2/layer2.0/relu/Relu", "PartitionedCall/PartitionedCall/PartitionedCall/Const_6"], "attr": {"Tpaddings": {"type": "DT_INT32"}, "T": {"type": "DT_FLOAT"}}}, {"name": "PartitionedCall/PartitionedCall/PartitionedCall/transpose_21", "op": "Transpose", "input": ["PartitionedCall/PartitionedCall/PartitionedCall/Pad_6", "PartitionedCall/PartitionedCall/PartitionedCall/transpose_21/perm"], "attr": {"Tperm": {"type": "DT_INT32"}, "_input_shapes": {"list": {"shape": [{"dim": [{"size": "-3"}, {"size": "128"}, {"size": "-39"}, {"size": "-40"}]}, {"dim": [{"size": "4"}]}]}}, "T": {"type": "DT_FLOAT"}}}, {"name": "PartitionedCall/PartitionedCall/PartitionedCall/Add_7", "op": "_FusedConv2D", "input": ["PartitionedCall/PartitionedCall/PartitionedCall/transpose_21", "PartitionedCall/PartitionedCall/PartitionedCall/split_6", "unknown_12"], "device": "/device:CPU:0", "attr": {"num_host_args": {"i": "0"}, "_input_shapes": {"list": {"shape": [{"dim": [{"size": "-3"}, {"size": "-39"}, {"size": "-40"}, {"size": "128"}]}, {"dim": [{"size": "3"}, {"size": "3"}, {"size": "128"}, {"size": "128"}]}]}}, "filter_format": {"s": "SFdJTw=="}, "data_format": {"s": "TkhXQw=="}, "strides": {"list": {"i": ["1", "1", "1", "1"]}}, "num_args": {"i": "1"}, "fused_ops": {"list": {"s": ["Qmlhc0FkZA=="]}}, "TArgs": {"list": {"type": ["DT_FLOAT"]}}, "padding": {"s": "VkFMSUQ="}, "use_cudnn_on_gpu": {"b": true}, "leakyrelu_alpha": {"f": 0.2}, "epsilon": {"f": 0.0}, "T": {"type": "DT_FLOAT"}, "explicit_paddings": {"list": {}}, "dilations": {"list": {"i": ["1", "1", "1", "1"]}}}}, {"name": "PartitionedCall/PartitionedCall/PartitionedCall/transpose_22", "op": "Transpose", "input": ["PartitionedCall/PartitionedCall/PartitionedCall/Add_7", "PartitionedCall/PartitionedCall/PartitionedCall/transpose_22/perm"], "attr": {"Tperm": {"type": "DT_INT32"}, "_input_shapes": {"list": {"shape": [{"dim": [{"size": "-3"}, {"size": "-41"}, {"size": "-42"}, {"size": "128"}]}, {"dim": [{"size": "4"}]}]}}, "T": {"type": "DT_FLOAT"}}}, {"name": "PartitionedCall/PartitionedCall/PartitionedCall/onnx_tf_prefix_/layer2/layer2.0/Add", "op": "AddV2", "input": ["PartitionedCall/PartitionedCall/PartitionedCall/transpose_22", "PartitionedCall/PartitionedCall/PartitionedCall/transpose_25"], "attr": {"T": {"type": "DT_FLOAT"}}}, {"name": "PartitionedCall/PartitionedCall/PartitionedCall/onnx_tf_prefix_/layer2/layer2.0/relu_1/Relu", "op": "Relu", "input": ["PartitionedCall/PartitionedCall/PartitionedCall/onnx_tf_prefix_/layer2/layer2.0/Add"], "attr": {"T": {"type": "DT_FLOAT"}}}, {"name": "PartitionedCall/PartitionedCall/PartitionedCall/Pad_7", "op": "Pad", "input": ["PartitionedCall/PartitionedCall/PartitionedCall/onnx_tf_prefix_/layer2/layer2.0/relu_1/Relu", "PartitionedCall/PartitionedCall/PartitionedCall/Const_7"], "attr": {"Tpaddings": {"type": "DT_INT32"}, "T": {"type": "DT_FLOAT"}}}, {"name": "PartitionedCall/PartitionedCall/PartitionedCall/transpose_27", "op": "Transpose", "input": ["PartitionedCall/PartitionedCall/PartitionedCall/Pad_7", "PartitionedCall/PartitionedCall/PartitionedCall/transpose_27/perm"], "attr": {"Tperm": {"type": "DT_INT32"}, "_input_shapes": {"list": {"shape": [{"dim": [{"size": "-3"}, {"size": "128"}, {"size": "-47"}, {"size": "-48"}]}, {"dim": [{"size": "4"}]}]}}, "T": {"type": "DT_FLOAT"}}}, {"name": "PartitionedCall/PartitionedCall/PartitionedCall/Add_9", "op": "_FusedConv2D", "input": ["PartitionedCall/PartitionedCall/PartitionedCall/transpose_27", "PartitionedCall/PartitionedCall/PartitionedCall/split_8", "unknown_16"], "device": "/device:CPU:0", "attr": {"num_host_args": {"i": "0"}, "_input_shapes": {"list": {"shape": [{"dim": [{"size": "-3"}, {"size": "-47"}, {"size": "-48"}, {"size": "128"}]}, {"dim": [{"size": "3"}, {"size": "3"}, {"size": "128"}, {"size": "128"}]}]}}, "filter_format": {"s": "SFdJTw=="}, "data_format": {"s": "TkhXQw=="}, "strides": {"list": {"i": ["1", "1", "1", "1"]}}, "num_args": {"i": "1"}, "fused_ops": {"list": {"s": ["Qmlhc0FkZA=="]}}, "TArgs": {"list": {"type": ["DT_FLOAT"]}}, "padding": {"s": "VkFMSUQ="}, "use_cudnn_on_gpu": {"b": true}, "leakyrelu_alpha": {"f": 0.2}, "epsilon": {"f": 0.0}, "T": {"type": "DT_FLOAT"}, "explicit_paddings": {"list": {}}, "dilations": {"list": {"i": ["1", "1", "1", "1"]}}}}, {"name": "PartitionedCall/PartitionedCall/PartitionedCall/transpose_28", "op": "Transpose", "input": ["PartitionedCall/PartitionedCall/PartitionedCall/Add_9", "PartitionedCall/PartitionedCall/PartitionedCall/transpose_28/perm"], "attr": {"Tperm": {"type": "DT_INT32"}, "_input_shapes": {"list": {"shape": [{"dim": [{"size": "-3"}, {"size": "-49"}, {"size": "-50"}, {"size": "128"}]}, {"dim": [{"size": "4"}]}]}}, "T": {"type": "DT_FLOAT"}}}, {"name": "PartitionedCall/PartitionedCall/PartitionedCall/onnx_tf_prefix_/layer2/layer2.1/relu/Relu", "op": "Relu", "input": ["PartitionedCall/PartitionedCall/PartitionedCall/transpose_28"], "attr": {"T": {"type": "DT_FLOAT"}}}, {"name": "PartitionedCall/PartitionedCall/PartitionedCall/Pad_8", "op": "Pad", "input": ["PartitionedCall/PartitionedCall/PartitionedCall/onnx_tf_prefix_/layer2/layer2.1/relu/Relu", "PartitionedCall/PartitionedCall/PartitionedCall/Const_8"], "attr": {"Tpaddings": {"type": "DT_INT32"}, "T": {"type": "DT_FLOAT"}}}, {"name": "PartitionedCall/PartitionedCall/PartitionedCall/transpose_30", "op": "Transpose", "input": ["PartitionedCall/PartitionedCall/PartitionedCall/Pad_8", "PartitionedCall/PartitionedCall/PartitionedCall/transpose_30/perm"], "attr": {"Tperm": {"type": "DT_INT32"}, "_input_shapes": {"list": {"shape": [{"dim": [{"size": "-3"}, {"size": "128"}, {"size": "-51"}, {"size": "-52"}]}, {"dim": [{"size": "4"}]}]}}, "T": {"type": "DT_FLOAT"}}}, {"name": "PartitionedCall/PartitionedCall/PartitionedCall/Add_10", "op": "_FusedConv2D", "input": ["PartitionedCall/PartitionedCall/PartitionedCall/transpose_30", "PartitionedCall/PartitionedCall/PartitionedCall/split_9", "unknown_18"], "device": "/device:CPU:0", "attr": {"num_host_args": {"i": "0"}, "data_format": {"s": "TkhXQw=="}, "filter_format": {"s": "SFdJTw=="}, "_input_shapes": {"list": {"shape": [{"dim": [{"size": "-3"}, {"size": "-51"}, {"size": "-52"}, {"size": "128"}]}, {"dim": [{"size": "3"}, {"size": "3"}, {"size": "128"}, {"size": "128"}]}]}}, "strides": {"list": {"i": ["1", "1", "1", "1"]}}, "num_args": {"i": "1"}, "fused_ops": {"list": {"s": ["Qmlhc0FkZA=="]}}, "TArgs": {"list": {"type": ["DT_FLOAT"]}}, "padding": {"s": "VkFMSUQ="}, "use_cudnn_on_gpu": {"b": true}, "leakyrelu_alpha": {"f": 0.2}, "epsilon": {"f": 0.0}, "T": {"type": "DT_FLOAT"}, "explicit_paddings": {"list": {}}, "dilations": {"list": {"i": ["1", "1", "1", "1"]}}}}, {"name": "PartitionedCall/PartitionedCall/PartitionedCall/transpose_31", "op": "Transpose", "input": ["PartitionedCall/PartitionedCall/PartitionedCall/Add_10", "PartitionedCall/PartitionedCall/PartitionedCall/transpose_31/perm"], "attr": {"Tperm": {"type": "DT_INT32"}, "_input_shapes": {"list": {"shape": [{"dim": [{"size": "-3"}, {"size": "-53"}, {"size": "-54"}, {"size": "128"}]}, {"dim": [{"size": "4"}]}]}}, "T": {"type": "DT_FLOAT"}}}, {"name": "PartitionedCall/PartitionedCall/PartitionedCall/onnx_tf_prefix_/layer2/layer2.1/Add", "op": "AddV2", "input": ["PartitionedCall/PartitionedCall/PartitionedCall/transpose_31", "PartitionedCall/PartitionedCall/PartitionedCall/onnx_tf_prefix_/layer2/layer2.0/relu_1/Relu"], "attr": {"T": {"type": "DT_FLOAT"}}}, {"name": "PartitionedCall/PartitionedCall/PartitionedCall/onnx_tf_prefix_/layer2/layer2.1/relu_1/Relu", "op": "Relu", "input": ["PartitionedCall/PartitionedCall/PartitionedCall/onnx_tf_prefix_/layer2/layer2.1/Add"], "attr": {"T": {"type": "DT_FLOAT"}}}, {"name": "PartitionedCall/PartitionedCall/PartitionedCall/Pad_9", "op": "Pad", "input": ["PartitionedCall/PartitionedCall/PartitionedCall/onnx_tf_prefix_/layer2/layer2.1/relu_1/Relu", "PartitionedCall/PartitionedCall/PartitionedCall/Const_9"], "attr": {"Tpaddings": {"type": "DT_INT32"}, "T": {"type": "DT_FLOAT"}}}, {"name": "PartitionedCall/PartitionedCall/PartitionedCall/transpose_39", "op": "Transpose", "input": ["PartitionedCall/PartitionedCall/PartitionedCall/onnx_tf_prefix_/layer2/layer2.1/relu_1/Relu", "PartitionedCall/PartitionedCall/PartitionedCall/transpose_39/perm"], "attr": {"Tperm": {"type": "DT_INT32"}, "_input_shapes": {"list": {"shape": [{"dim": [{"size": "-3"}, {"size": "128"}, {"size": "-55"}, {"size": "-56"}]}, {"dim": [{"size": "4"}]}]}}, "T": {"type": "DT_FLOAT"}}}, {"name": "PartitionedCall/PartitionedCall/PartitionedCall/transpose_33", "op": "Transpose", "input": ["PartitionedCall/PartitionedCall/PartitionedCall/Pad_9", "PartitionedCall/PartitionedCall/PartitionedCall/transpose_33/perm"], "attr": {"Tperm": {"type": "DT_INT32"}, "_input_shapes": {"list": {"shape": [{"dim": [{"size": "-3"}, {"size": "128"}, {"size": "-57"}, {"size": "-58"}]}, {"dim": [{"size": "4"}]}]}}, "T": {"type": "DT_FLOAT"}}}, {"name": "PartitionedCall/PartitionedCall/PartitionedCall/Add_13", "op": "_FusedConv2D", "input": ["PartitionedCall/PartitionedCall/PartitionedCall/transpose_39", "PartitionedCall/PartitionedCall/PartitionedCall/split_12", "unknown_24"], "device": "/device:CPU:0", "attr": {"num_host_args": {"i": "0"}, "_input_shapes": {"list": {"shape": [{"dim": [{"size": "-3"}, {"size": "-55"}, {"size": "-56"}, {"size": "128"}]}, {"dim": [{"size": "1"}, {"size": "1"}, {"size": "128"}, {"size": "256"}]}]}}, "filter_format": {"s": "SFdJTw=="}, "data_format": {"s": "TkhXQw=="}, "strides": {"list": {"i": ["1", "2", "2", "1"]}}, "num_args": {"i": "1"}, "fused_ops": {"list": {"s": ["Qmlhc0FkZA=="]}}, "TArgs": {"list": {"type": ["DT_FLOAT"]}}, "padding": {"s": "VkFMSUQ="}, "use_cudnn_on_gpu": {"b": true}, "leakyrelu_alpha": {"f": 0.2}, "epsilon": {"f": 0.0}, "T": {"type": "DT_FLOAT"}, "explicit_paddings": {"list": {}}, "dilations": {"list": {"i": ["1", "1", "1", "1"]}}}}, {"name": "PartitionedCall/PartitionedCall/PartitionedCall/Add_11", "op": "_FusedConv2D", "input": ["PartitionedCall/PartitionedCall/PartitionedCall/transpose_33", "PartitionedCall/PartitionedCall/PartitionedCall/split_10", "unknown_20"], "device": "/device:CPU:0", "attr": {"num_host_args": {"i": "0"}, "data_format": {"s": "TkhXQw=="}, "filter_format": {"s": "SFdJTw=="}, "_input_shapes": {"list": {"shape": [{"dim": [{"size": "-3"}, {"size": "-57"}, {"size": "-58"}, {"size": "128"}]}, {"dim": [{"size": "3"}, {"size": "3"}, {"size": "128"}, {"size": "256"}]}]}}, "strides": {"list": {"i": ["1", "2", "2", "1"]}}, "num_args": {"i": "1"}, "fused_ops": {"list": {"s": ["Qmlhc0FkZA=="]}}, "TArgs": {"list": {"type": ["DT_FLOAT"]}}, "padding": {"s": "VkFMSUQ="}, "use_cudnn_on_gpu": {"b": true}, "leakyrelu_alpha": {"f": 0.2}, "epsilon": {"f": 0.0}, "T": {"type": "DT_FLOAT"}, "explicit_paddings": {"list": {}}, "dilations": {"list": {"i": ["1", "1", "1", "1"]}}}}, {"name": "PartitionedCall/PartitionedCall/PartitionedCall/transpose_40", "op": "Transpose", "input": ["PartitionedCall/PartitionedCall/PartitionedCall/Add_13", "PartitionedCall/PartitionedCall/PartitionedCall/transpose_40/perm"], "attr": {"Tperm": {"type": "DT_INT32"}, "_input_shapes": {"list": {"shape": [{"dim": [{"size": "-3"}, {"size": "-65"}, {"size": "-66"}, {"size": "256"}]}, {"dim": [{"size": "4"}]}]}}, "T": {"type": "DT_FLOAT"}}}, {"name": "PartitionedCall/PartitionedCall/PartitionedCall/transpose_34", "op": "Transpose", "input": ["PartitionedCall/PartitionedCall/PartitionedCall/Add_11", "PartitionedCall/PartitionedCall/PartitionedCall/transpose_34/perm"], "attr": {"Tperm": {"type": "DT_INT32"}, "_input_shapes": {"list": {"shape": [{"dim": [{"size": "-3"}, {"size": "-59"}, {"size": "-60"}, {"size": "256"}]}, {"dim": [{"size": "4"}]}]}}, "T": {"type": "DT_FLOAT"}}}, {"name": "PartitionedCall/PartitionedCall/PartitionedCall/onnx_tf_prefix_/layer3/layer3.0/relu/Relu", "op": "Relu", "input": ["PartitionedCall/PartitionedCall/PartitionedCall/transpose_34"], "attr": {"T": {"type": "DT_FLOAT"}}}, {"name": "PartitionedCall/PartitionedCall/PartitionedCall/Pad_10", "op": "Pad", "input": ["PartitionedCall/PartitionedCall/PartitionedCall/onnx_tf_prefix_/layer3/layer3.0/relu/Relu", "PartitionedCall/PartitionedCall/PartitionedCall/Const_10"], "attr": {"Tpaddings": {"type": "DT_INT32"}, "T": {"type": "DT_FLOAT"}}}, {"name": "PartitionedCall/PartitionedCall/PartitionedCall/transpose_36", "op": "Transpose", "input": ["PartitionedCall/PartitionedCall/PartitionedCall/Pad_10", "PartitionedCall/PartitionedCall/PartitionedCall/transpose_36/perm"], "attr": {"Tperm": {"type": "DT_INT32"}, "_input_shapes": {"list": {"shape": [{"dim": [{"size": "-3"}, {"size": "256"}, {"size": "-61"}, {"size": "-62"}]}, {"dim": [{"size": "4"}]}]}}, "T": {"type": "DT_FLOAT"}}}, {"name": "PartitionedCall/PartitionedCall/PartitionedCall/Add_12", "op": "_FusedConv2D", "input": ["PartitionedCall/PartitionedCall/PartitionedCall/transpose_36", "PartitionedCall/PartitionedCall/PartitionedCall/split_11", "unknown_22"], "device": "/device:CPU:0", "attr": {"num_host_args": {"i": "0"}, "_input_shapes": {"list": {"shape": [{"dim": [{"size": "-3"}, {"size": "-61"}, {"size": "-62"}, {"size": "256"}]}, {"dim": [{"size": "3"}, {"size": "3"}, {"size": "256"}, {"size": "256"}]}]}}, "filter_format": {"s": "SFdJTw=="}, "data_format": {"s": "TkhXQw=="}, "strides": {"list": {"i": ["1", "1", "1", "1"]}}, "num_args": {"i": "1"}, "fused_ops": {"list": {"s": ["Qmlhc0FkZA=="]}}, "TArgs": {"list": {"type": ["DT_FLOAT"]}}, "padding": {"s": "VkFMSUQ="}, "use_cudnn_on_gpu": {"b": true}, "leakyrelu_alpha": {"f": 0.2}, "epsilon": {"f": 0.0}, "T": {"type": "DT_FLOAT"}, "explicit_paddings": {"list": {}}, "dilations": {"list": {"i": ["1", "1", "1", "1"]}}}}, {"name": "PartitionedCall/PartitionedCall/PartitionedCall/transpose_37", "op": "Transpose", "input": ["PartitionedCall/PartitionedCall/PartitionedCall/Add_12", "PartitionedCall/PartitionedCall/PartitionedCall/transpose_37/perm"], "attr": {"Tperm": {"type": "DT_INT32"}, "_input_shapes": {"list": {"shape": [{"dim": [{"size": "-3"}, {"size": "-63"}, {"size": "-64"}, {"size": "256"}]}, {"dim": [{"size": "4"}]}]}}, "T": {"type": "DT_FLOAT"}}}, {"name": "PartitionedCall/PartitionedCall/PartitionedCall/onnx_tf_prefix_/layer3/layer3.0/Add", "op": "AddV2", "input": ["PartitionedCall/PartitionedCall/PartitionedCall/transpose_37", "PartitionedCall/PartitionedCall/PartitionedCall/transpose_40"], "attr": {"T": {"type": "DT_FLOAT"}}}, {"name": "PartitionedCall/PartitionedCall/PartitionedCall/onnx_tf_prefix_/layer3/layer3.0/relu_1/Relu", "op": "Relu", "input": ["PartitionedCall/PartitionedCall/PartitionedCall/onnx_tf_prefix_/layer3/layer3.0/Add"], "attr": {"T": {"type": "DT_FLOAT"}}}, {"name": "PartitionedCall/PartitionedCall/PartitionedCall/Pad_11", "op": "Pad", "input": ["PartitionedCall/PartitionedCall/PartitionedCall/onnx_tf_prefix_/layer3/layer3.0/relu_1/Relu", "PartitionedCall/PartitionedCall/PartitionedCall/Const_11"], "attr": {"Tpaddings": {"type": "DT_INT32"}, "T": {"type": "DT_FLOAT"}}}, {"name": "PartitionedCall/PartitionedCall/PartitionedCall/transpose_42", "op": "Transpose", "input": ["PartitionedCall/PartitionedCall/PartitionedCall/Pad_11", "PartitionedCall/PartitionedCall/PartitionedCall/transpose_42/perm"], "attr": {"Tperm": {"type": "DT_INT32"}, "_input_shapes": {"list": {"shape": [{"dim": [{"size": "-3"}, {"size": "256"}, {"size": "-69"}, {"size": "-70"}]}, {"dim": [{"size": "4"}]}]}}, "T": {"type": "DT_FLOAT"}}}, {"name": "PartitionedCall/PartitionedCall/PartitionedCall/Add_14", "op": "_FusedConv2D", "input": ["PartitionedCall/PartitionedCall/PartitionedCall/transpose_42", "PartitionedCall/PartitionedCall/PartitionedCall/split_13", "unknown_26"], "device": "/device:CPU:0", "attr": {"num_host_args": {"i": "0"}, "data_format": {"s": "TkhXQw=="}, "filter_format": {"s": "SFdJTw=="}, "_input_shapes": {"list": {"shape": [{"dim": [{"size": "-3"}, {"size": "-69"}, {"size": "-70"}, {"size": "256"}]}, {"dim": [{"size": "3"}, {"size": "3"}, {"size": "256"}, {"size": "256"}]}]}}, "strides": {"list": {"i": ["1", "1", "1", "1"]}}, "num_args": {"i": "1"}, "fused_ops": {"list": {"s": ["Qmlhc0FkZA=="]}}, "TArgs": {"list": {"type": ["DT_FLOAT"]}}, "padding": {"s": "VkFMSUQ="}, "use_cudnn_on_gpu": {"b": true}, "leakyrelu_alpha": {"f": 0.2}, "epsilon": {"f": 0.0}, "T": {"type": "DT_FLOAT"}, "explicit_paddings": {"list": {}}, "dilations": {"list": {"i": ["1", "1", "1", "1"]}}}}, {"name": "PartitionedCall/PartitionedCall/PartitionedCall/transpose_43", "op": "Transpose", "input": ["PartitionedCall/PartitionedCall/PartitionedCall/Add_14", "PartitionedCall/PartitionedCall/PartitionedCall/transpose_43/perm"], "attr": {"Tperm": {"type": "DT_INT32"}, "_input_shapes": {"list": {"shape": [{"dim": [{"size": "-3"}, {"size": "-71"}, {"size": "-72"}, {"size": "256"}]}, {"dim": [{"size": "4"}]}]}}, "T": {"type": "DT_FLOAT"}}}, {"name": "PartitionedCall/PartitionedCall/PartitionedCall/onnx_tf_prefix_/layer3/layer3.1/relu/Relu", "op": "Relu", "input": ["PartitionedCall/PartitionedCall/PartitionedCall/transpose_43"], "attr": {"T": {"type": "DT_FLOAT"}}}, {"name": "PartitionedCall/PartitionedCall/PartitionedCall/Pad_12", "op": "Pad", "input": ["PartitionedCall/PartitionedCall/PartitionedCall/onnx_tf_prefix_/layer3/layer3.1/relu/Relu", "PartitionedCall/PartitionedCall/PartitionedCall/Const_12"], "attr": {"Tpaddings": {"type": "DT_INT32"}, "T": {"type": "DT_FLOAT"}}}, {"name": "PartitionedCall/PartitionedCall/PartitionedCall/transpose_45", "op": "Transpose", "input": ["PartitionedCall/PartitionedCall/PartitionedCall/Pad_12", "PartitionedCall/PartitionedCall/PartitionedCall/transpose_45/perm"], "attr": {"Tperm": {"type": "DT_INT32"}, "_input_shapes": {"list": {"shape": [{"dim": [{"size": "-3"}, {"size": "256"}, {"size": "-73"}, {"size": "-74"}]}, {"dim": [{"size": "4"}]}]}}, "T": {"type": "DT_FLOAT"}}}, {"name": "PartitionedCall/PartitionedCall/PartitionedCall/Add_15", "op": "_FusedConv2D", "input": ["PartitionedCall/PartitionedCall/PartitionedCall/transpose_45", "PartitionedCall/PartitionedCall/PartitionedCall/split_14", "unknown_28"], "device": "/device:CPU:0", "attr": {"num_host_args": {"i": "0"}, "_input_shapes": {"list": {"shape": [{"dim": [{"size": "-3"}, {"size": "-73"}, {"size": "-74"}, {"size": "256"}]}, {"dim": [{"size": "3"}, {"size": "3"}, {"size": "256"}, {"size": "256"}]}]}}, "filter_format": {"s": "SFdJTw=="}, "data_format": {"s": "TkhXQw=="}, "fused_ops": {"list": {"s": ["Qmlhc0FkZA=="]}}, "num_args": {"i": "1"}, "strides": {"list": {"i": ["1", "1", "1", "1"]}}, "TArgs": {"list": {"type": ["DT_FLOAT"]}}, "padding": {"s": "VkFMSUQ="}, "use_cudnn_on_gpu": {"b": true}, "leakyrelu_alpha": {"f": 0.2}, "epsilon": {"f": 0.0}, "T": {"type": "DT_FLOAT"}, "explicit_paddings": {"list": {}}, "dilations": {"list": {"i": ["1", "1", "1", "1"]}}}}, {"name": "PartitionedCall/PartitionedCall/PartitionedCall/transpose_46", "op": "Transpose", "input": ["PartitionedCall/PartitionedCall/PartitionedCall/Add_15", "PartitionedCall/PartitionedCall/PartitionedCall/transpose_46/perm"], "attr": {"Tperm": {"type": "DT_INT32"}, "_input_shapes": {"list": {"shape": [{"dim": [{"size": "-3"}, {"size": "-75"}, {"size": "-76"}, {"size": "256"}]}, {"dim": [{"size": "4"}]}]}}, "T": {"type": "DT_FLOAT"}}}, {"name": "PartitionedCall/PartitionedCall/PartitionedCall/onnx_tf_prefix_/layer3/layer3.1/Add", "op": "AddV2", "input": ["PartitionedCall/PartitionedCall/PartitionedCall/transpose_46", "PartitionedCall/PartitionedCall/PartitionedCall/onnx_tf_prefix_/layer3/layer3.0/relu_1/Relu"], "attr": {"T": {"type": "DT_FLOAT"}}}, {"name": "PartitionedCall/PartitionedCall/PartitionedCall/onnx_tf_prefix_/layer3/layer3.1/relu_1/Relu", "op": "Relu", "input": ["PartitionedCall/PartitionedCall/PartitionedCall/onnx_tf_prefix_/layer3/layer3.1/Add"], "attr": {"T": {"type": "DT_FLOAT"}}}, {"name": "PartitionedCall/PartitionedCall/PartitionedCall/Pad_13", "op": "Pad", "input": ["PartitionedCall/PartitionedCall/PartitionedCall/onnx_tf_prefix_/layer3/layer3.1/relu_1/Relu", "PartitionedCall/PartitionedCall/PartitionedCall/Const_13"], "attr": {"Tpaddings": {"type": "DT_INT32"}, "T": {"type": "DT_FLOAT"}}}, {"name": "PartitionedCall/PartitionedCall/PartitionedCall/transpose_54", "op": "Transpose", "input": ["PartitionedCall/PartitionedCall/PartitionedCall/onnx_tf_prefix_/layer3/layer3.1/relu_1/Relu", "PartitionedCall/PartitionedCall/PartitionedCall/transpose_54/perm"], "attr": {"Tperm": {"type": "DT_INT32"}, "_input_shapes": {"list": {"shape": [{"dim": [{"size": "-3"}, {"size": "256"}, {"size": "-77"}, {"size": "-78"}]}, {"dim": [{"size": "4"}]}]}}, "T": {"type": "DT_FLOAT"}}}, {"name": "PartitionedCall/PartitionedCall/PartitionedCall/transpose_48", "op": "Transpose", "input": ["PartitionedCall/PartitionedCall/PartitionedCall/Pad_13", "PartitionedCall/PartitionedCall/PartitionedCall/transpose_48/perm"], "attr": {"Tperm": {"type": "DT_INT32"}, "_input_shapes": {"list": {"shape": [{"dim": [{"size": "-3"}, {"size": "256"}, {"size": "-79"}, {"size": "-80"}]}, {"dim": [{"size": "4"}]}]}}, "T": {"type": "DT_FLOAT"}}}, {"name": "PartitionedCall/PartitionedCall/PartitionedCall/Add_18", "op": "_FusedConv2D", "input": ["PartitionedCall/PartitionedCall/PartitionedCall/transpose_54", "PartitionedCall/PartitionedCall/PartitionedCall/split_17", "unknown_34"], "device": "/device:CPU:0", "attr": {"num_host_args": {"i": "0"}, "_input_shapes": {"list": {"shape": [{"dim": [{"size": "-3"}, {"size": "-77"}, {"size": "-78"}, {"size": "256"}]}, {"dim": [{"size": "1"}, {"size": "1"}, {"size": "256"}, {"size": "512"}]}]}}, "filter_format": {"s": "SFdJTw=="}, "data_format": {"s": "TkhXQw=="}, "strides": {"list": {"i": ["1", "2", "2", "1"]}}, "num_args": {"i": "1"}, "fused_ops": {"list": {"s": ["Qmlhc0FkZA=="]}}, "TArgs": {"list": {"type": ["DT_FLOAT"]}}, "padding": {"s": "VkFMSUQ="}, "use_cudnn_on_gpu": {"b": true}, "leakyrelu_alpha": {"f": 0.2}, "epsilon": {"f": 0.0}, "T": {"type": "DT_FLOAT"}, "explicit_paddings": {"list": {}}, "dilations": {"list": {"i": ["1", "1", "1", "1"]}}}}, {"name": "PartitionedCall/PartitionedCall/PartitionedCall/Add_16", "op": "_FusedConv2D", "input": ["PartitionedCall/PartitionedCall/PartitionedCall/transpose_48", "PartitionedCall/PartitionedCall/PartitionedCall/split_15", "unknown_30"], "device": "/device:CPU:0", "attr": {"num_host_args": {"i": "0"}, "data_format": {"s": "TkhXQw=="}, "filter_format": {"s": "SFdJTw=="}, "_input_shapes": {"list": {"shape": [{"dim": [{"size": "-3"}, {"size": "-79"}, {"size": "-80"}, {"size": "256"}]}, {"dim": [{"size": "3"}, {"size": "3"}, {"size": "256"}, {"size": "512"}]}]}}, "strides": {"list": {"i": ["1", "2", "2", "1"]}}, "num_args": {"i": "1"}, "fused_ops": {"list": {"s": ["Qmlhc0FkZA=="]}}, "TArgs": {"list": {"type": ["DT_FLOAT"]}}, "padding": {"s": "VkFMSUQ="}, "use_cudnn_on_gpu": {"b": true}, "leakyrelu_alpha": {"f": 0.2}, "epsilon": {"f": 0.0}, "T": {"type": "DT_FLOAT"}, "explicit_paddings": {"list": {}}, "dilations": {"list": {"i": ["1", "1", "1", "1"]}}}}, {"name": "PartitionedCall/PartitionedCall/PartitionedCall/transpose_55", "op": "Transpose", "input": ["PartitionedCall/PartitionedCall/PartitionedCall/Add_18", "PartitionedCall/PartitionedCall/PartitionedCall/transpose_55/perm"], "attr": {"Tperm": {"type": "DT_INT32"}, "_input_shapes": {"list": {"shape": [{"dim": [{"size": "-3"}, {"size": "-87"}, {"size": "-88"}, {"size": "512"}]}, {"dim": [{"size": "4"}]}]}}, "T": {"type": "DT_FLOAT"}}}, {"name": "PartitionedCall/PartitionedCall/PartitionedCall/transpose_49", "op": "Transpose", "input": ["PartitionedCall/PartitionedCall/PartitionedCall/Add_16", "PartitionedCall/PartitionedCall/PartitionedCall/transpose_49/perm"], "attr": {"Tperm": {"type": "DT_INT32"}, "_input_shapes": {"list": {"shape": [{"dim": [{"size": "-3"}, {"size": "-81"}, {"size": "-82"}, {"size": "512"}]}, {"dim": [{"size": "4"}]}]}}, "T": {"type": "DT_FLOAT"}}}, {"name": "PartitionedCall/PartitionedCall/PartitionedCall/onnx_tf_prefix_/layer4/layer4.0/relu/Relu", "op": "Relu", "input": ["PartitionedCall/PartitionedCall/PartitionedCall/transpose_49"], "attr": {"T": {"type": "DT_FLOAT"}}}, {"name": "PartitionedCall/PartitionedCall/PartitionedCall/Pad_14", "op": "Pad", "input": ["PartitionedCall/PartitionedCall/PartitionedCall/onnx_tf_prefix_/layer4/layer4.0/relu/Relu", "PartitionedCall/PartitionedCall/PartitionedCall/Const_14"], "attr": {"Tpaddings": {"type": "DT_INT32"}, "T": {"type": "DT_FLOAT"}}}, {"name": "PartitionedCall/PartitionedCall/PartitionedCall/transpose_51", "op": "Transpose", "input": ["PartitionedCall/PartitionedCall/PartitionedCall/Pad_14", "PartitionedCall/PartitionedCall/PartitionedCall/transpose_51/perm"], "attr": {"Tperm": {"type": "DT_INT32"}, "_input_shapes": {"list": {"shape": [{"dim": [{"size": "-3"}, {"size": "512"}, {"size": "-83"}, {"size": "-84"}]}, {"dim": [{"size": "4"}]}]}}, "T": {"type": "DT_FLOAT"}}}, {"name": "PartitionedCall/PartitionedCall/PartitionedCall/Add_17", "op": "_FusedConv2D", "input": ["PartitionedCall/PartitionedCall/PartitionedCall/transpose_51", "PartitionedCall/PartitionedCall/PartitionedCall/split_16", "unknown_32"], "device": "/device:CPU:0", "attr": {"num_host_args": {"i": "0"}, "_input_shapes": {"list": {"shape": [{"dim": [{"size": "-3"}, {"size": "-83"}, {"size": "-84"}, {"size": "512"}]}, {"dim": [{"size": "3"}, {"size": "3"}, {"size": "512"}, {"size": "512"}]}]}}, "filter_format": {"s": "SFdJTw=="}, "data_format": {"s": "TkhXQw=="}, "strides": {"list": {"i": ["1", "1", "1", "1"]}}, "num_args": {"i": "1"}, "fused_ops": {"list": {"s": ["Qmlhc0FkZA=="]}}, "TArgs": {"list": {"type": ["DT_FLOAT"]}}, "padding": {"s": "VkFMSUQ="}, "use_cudnn_on_gpu": {"b": true}, "leakyrelu_alpha": {"f": 0.2}, "epsilon": {"f": 0.0}, "T": {"type": "DT_FLOAT"}, "explicit_paddings": {"list": {}}, "dilations": {"list": {"i": ["1", "1", "1", "1"]}}}}, {"name": "PartitionedCall/PartitionedCall/PartitionedCall/transpose_52", "op": "Transpose", "input": ["PartitionedCall/PartitionedCall/PartitionedCall/Add_17", "PartitionedCall/PartitionedCall/PartitionedCall/transpose_52/perm"], "attr": {"Tperm": {"type": "DT_INT32"}, "_input_shapes": {"list": {"shape": [{"dim": [{"size": "-3"}, {"size": "-85"}, {"size": "-86"}, {"size": "512"}]}, {"dim": [{"size": "4"}]}]}}, "T": {"type": "DT_FLOAT"}}}, {"name": "PartitionedCall/PartitionedCall/PartitionedCall/onnx_tf_prefix_/layer4/layer4.0/Add", "op": "AddV2", "input": ["PartitionedCall/PartitionedCall/PartitionedCall/transpose_52", "PartitionedCall/PartitionedCall/PartitionedCall/transpose_55"], "attr": {"T": {"type": "DT_FLOAT"}}}, {"name": "PartitionedCall/PartitionedCall/PartitionedCall/onnx_tf_prefix_/layer4/layer4.0/relu_1/Relu", "op": "Relu", "input": ["PartitionedCall/PartitionedCall/PartitionedCall/onnx_tf_prefix_/layer4/layer4.0/Add"], "attr": {"T": {"type": "DT_FLOAT"}}}, {"name": "PartitionedCall/PartitionedCall/PartitionedCall/Pad_15", "op": "Pad", "input": ["PartitionedCall/PartitionedCall/PartitionedCall/onnx_tf_prefix_/layer4/layer4.0/relu_1/Relu", "PartitionedCall/PartitionedCall/PartitionedCall/Const_15"], "attr": {"Tpaddings": {"type": "DT_INT32"}, "T": {"type": "DT_FLOAT"}}}, {"name": "PartitionedCall/PartitionedCall/PartitionedCall/transpose_57", "op": "Transpose", "input": ["PartitionedCall/PartitionedCall/PartitionedCall/Pad_15", "PartitionedCall/PartitionedCall/PartitionedCall/transpose_57/perm"], "attr": {"Tperm": {"type": "DT_INT32"}, "_input_shapes": {"list": {"shape": [{"dim": [{"size": "-3"}, {"size": "512"}, {"size": "-91"}, {"size": "-92"}]}, {"dim": [{"size": "4"}]}]}}, "T": {"type": "DT_FLOAT"}}}, {"name": "PartitionedCall/PartitionedCall/PartitionedCall/Add_19", "op": "_FusedConv2D", "input": ["PartitionedCall/PartitionedCall/PartitionedCall/transpose_57", "PartitionedCall/PartitionedCall/PartitionedCall/split_18", "unknown_36"], "device": "/device:CPU:0", "attr": {"num_host_args": {"i": "0"}, "_input_shapes": {"list": {"shape": [{"dim": [{"size": "-3"}, {"size": "-91"}, {"size": "-92"}, {"size": "512"}]}, {"dim": [{"size": "3"}, {"size": "3"}, {"size": "512"}, {"size": "512"}]}]}}, "filter_format": {"s": "SFdJTw=="}, "data_format": {"s": "TkhXQw=="}, "strides": {"list": {"i": ["1", "1", "1", "1"]}}, "num_args": {"i": "1"}, "fused_ops": {"list": {"s": ["Qmlhc0FkZA=="]}}, "TArgs": {"list": {"type": ["DT_FLOAT"]}}, "padding": {"s": "VkFMSUQ="}, "use_cudnn_on_gpu": {"b": true}, "leakyrelu_alpha": {"f": 0.2}, "epsilon": {"f": 0.0}, "T": {"type": "DT_FLOAT"}, "explicit_paddings": {"list": {}}, "dilations": {"list": {"i": ["1", "1", "1", "1"]}}}}, {"name": "PartitionedCall/PartitionedCall/PartitionedCall/transpose_58", "op": "Transpose", "input": ["PartitionedCall/PartitionedCall/PartitionedCall/Add_19", "PartitionedCall/PartitionedCall/PartitionedCall/transpose_58/perm"], "attr": {"Tperm": {"type": "DT_INT32"}, "_input_shapes": {"list": {"shape": [{"dim": [{"size": "-3"}, {"size": "-93"}, {"size": "-94"}, {"size": "512"}]}, {"dim": [{"size": "4"}]}]}}, "T": {"type": "DT_FLOAT"}}}, {"name": "PartitionedCall/PartitionedCall/PartitionedCall/onnx_tf_prefix_/layer4/layer4.1/relu/Relu", "op": "Relu", "input": ["PartitionedCall/PartitionedCall/PartitionedCall/transpose_58"], "attr": {"T": {"type": "DT_FLOAT"}}}, {"name": "PartitionedCall/PartitionedCall/PartitionedCall/Pad_16", "op": "Pad", "input": ["PartitionedCall/PartitionedCall/PartitionedCall/onnx_tf_prefix_/layer4/layer4.1/relu/Relu", "PartitionedCall/PartitionedCall/PartitionedCall/Const_16"], "attr": {"Tpaddings": {"type": "DT_INT32"}, "T": {"type": "DT_FLOAT"}}}, {"name": "PartitionedCall/PartitionedCall/PartitionedCall/transpose_60", "op": "Transpose", "input": ["PartitionedCall/PartitionedCall/PartitionedCall/Pad_16", "PartitionedCall/PartitionedCall/PartitionedCall/transpose_60/perm"], "attr": {"Tperm": {"type": "DT_INT32"}, "_input_shapes": {"list": {"shape": [{"dim": [{"size": "-3"}, {"size": "512"}, {"size": "-95"}, {"size": "-96"}]}, {"dim": [{"size": "4"}]}]}}, "T": {"type": "DT_FLOAT"}}}, {"name": "PartitionedCall/PartitionedCall/PartitionedCall/Add_20", "op": "_FusedConv2D", "input": ["PartitionedCall/PartitionedCall/PartitionedCall/transpose_60", "PartitionedCall/PartitionedCall/PartitionedCall/split_19", "unknown_38"], "device": "/device:CPU:0", "attr": {"num_host_args": {"i": "0"}, "_input_shapes": {"list": {"shape": [{"dim": [{"size": "-3"}, {"size": "-95"}, {"size": "-96"}, {"size": "512"}]}, {"dim": [{"size": "3"}, {"size": "3"}, {"size": "512"}, {"size": "512"}]}]}}, "filter_format": {"s": "SFdJTw=="}, "data_format": {"s": "TkhXQw=="}, "strides": {"list": {"i": ["1", "1", "1", "1"]}}, "num_args": {"i": "1"}, "fused_ops": {"list": {"s": ["Qmlhc0FkZA=="]}}, "TArgs": {"list": {"type": ["DT_FLOAT"]}}, "padding": {"s": "VkFMSUQ="}, "use_cudnn_on_gpu": {"b": true}, "leakyrelu_alpha": {"f": 0.2}, "epsilon": {"f": 0.0}, "T": {"type": "DT_FLOAT"}, "explicit_paddings": {"list": {}}, "dilations": {"list": {"i": ["1", "1", "1", "1"]}}}}, {"name": "PartitionedCall/PartitionedCall/PartitionedCall/transpose_61", "op": "Transpose", "input": ["PartitionedCall/PartitionedCall/PartitionedCall/Add_20", "PartitionedCall/PartitionedCall/PartitionedCall/transpose_61/perm"], "attr": {"Tperm": {"type": "DT_INT32"}, "_input_shapes": {"list": {"shape": [{"dim": [{"size": "-3"}, {"size": "-97"}, {"size": "-98"}, {"size": "512"}]}, {"dim": [{"size": "4"}]}]}}, "T": {"type": "DT_FLOAT"}}}, {"name": "PartitionedCall/PartitionedCall/PartitionedCall/onnx_tf_prefix_/layer4/layer4.1/Add", "op": "AddV2", "input": ["PartitionedCall/PartitionedCall/PartitionedCall/transpose_61", "PartitionedCall/PartitionedCall/PartitionedCall/onnx_tf_prefix_/layer4/layer4.0/relu_1/Relu"], "attr": {"T": {"type": "DT_FLOAT"}}}, {"name": "PartitionedCall/PartitionedCall/PartitionedCall/onnx_tf_prefix_/layer4/layer4.1/relu_1/Relu", "op": "Relu", "input": ["PartitionedCall/PartitionedCall/PartitionedCall/onnx_tf_prefix_/layer4/layer4.1/Add"], "attr": {"T": {"type": "DT_FLOAT"}}}, {"name": "PartitionedCall/PartitionedCall/PartitionedCall/Mean", "op": "Mean", "input": ["PartitionedCall/PartitionedCall/PartitionedCall/onnx_tf_prefix_/layer4/layer4.1/relu_1/Relu", "ConstantFolding/PartitionedCall/PartitionedCall/PartitionedCall/split_20-folded-1"], "attr": {"Tidx": {"type": "DT_INT32"}, "T": {"type": "DT_FLOAT"}, "keep_dims": {"b": true}}}, {"name": "PartitionedCall/PartitionedCall/PartitionedCall/Shape_22", "op": "Shape", "input": ["PartitionedCall/PartitionedCall/PartitionedCall/Mean"], "attr": {"T": {"type": "DT_FLOAT"}, "out_type": {"type": "DT_INT32"}}, "experimentalType": {"typeId": "TFT_PRODUCT", "args": [{"typeId": "TFT_SHAPE_TENSOR", "args": [{"typeId": "TFT_INT32"}]}]}}, {"name": "PartitionedCall/PartitionedCall/PartitionedCall/strided_slice_5", "op": "StridedSlice", "input": ["PartitionedCall/PartitionedCall/PartitionedCall/Shape_22", "PartitionedCall/PartitionedCall/PartitionedCall/strided_slice_5/stack", "PartitionedCall/PartitionedCall/PartitionedCall/strided_slice_5/stack_1", "PartitionedCall/PartitionedCall/PartitionedCall/strided_slice_5/stack_2"], "attr": {"shrink_axis_mask": {"i": "0"}, "Index": {"type": "DT_INT32"}, "new_axis_mask": {"i": "0"}, "begin_mask": {"i": "0"}, "end_mask": {"i": "0"}, "T": {"type": "DT_INT32"}, "ellipsis_mask": {"i": "0"}}}, {"name": "PartitionedCall/PartitionedCall/PartitionedCall/strided_slice_6", "op": "StridedSlice", "input": ["PartitionedCall/PartitionedCall/PartitionedCall/Shape_22", "PartitionedCall/PartitionedCall/PartitionedCall/strided_slice_6/stack", "PartitionedCall/PartitionedCall/PartitionedCall/strided_slice_6/stack_1", "PartitionedCall/PartitionedCall/PartitionedCall/strided_slice_6/stack_2"], "attr": {"shrink_axis_mask": {"i": "0"}, "Index": {"type": "DT_INT32"}, "new_axis_mask": {"i": "0"}, "begin_mask": {"i": "0"}, "end_mask": {"i": "0"}, "T": {"type": "DT_INT32"}, "ellipsis_mask": {"i": "0"}}}, {"name": "PartitionedCall/PartitionedCall/PartitionedCall/Prod", "op": "Prod", "input": ["PartitionedCall/PartitionedCall/PartitionedCall/strided_slice_5", "PartitionedCall/PartitionedCall/PartitionedCall/Const_17"], "attr": {"T": {"type": "DT_INT32"}, "Tidx": {"type": "DT_INT32"}, "keep_dims": {"b": false}}}, {"name": "PartitionedCall/PartitionedCall/PartitionedCall/Prod_1", "op": "Prod", "input": ["PartitionedCall/PartitionedCall/PartitionedCall/strided_slice_6", "PartitionedCall/PartitionedCall/PartitionedCall/Const_19"], "attr": {"T": {"type": "DT_INT32"}, "Tidx": {"type": "DT_INT32"}, "keep_dims": {"b": false}}}, {"name": "PartitionedCall/PartitionedCall/PartitionedCall/Reshape/shape", "op": "Pack", "input": ["PartitionedCall/PartitionedCall/PartitionedCall/Prod", "PartitionedCall/PartitionedCall/PartitionedCall/Prod_1"], "attr": {"N": {"i": "2"}, "axis": {"i": "0"}, "T": {"type": "DT_INT32"}}}, {"name": "PartitionedCall/PartitionedCall/PartitionedCall/Reshape", "op": "Reshape", "input": ["PartitionedCall/PartitionedCall/PartitionedCall/Mean", "PartitionedCall/PartitionedCall/PartitionedCall/Reshape/shape"], "attr": {"T": {"type": "DT_FLOAT"}, "Tshape": {"type": "DT_INT32"}}}, {"name": "PartitionedCall/PartitionedCall/PartitionedCall/flatten/Shape", "op": "Shape", "input": ["PartitionedCall/PartitionedCall/PartitionedCall/Reshape"], "attr": {"T": {"type": "DT_FLOAT"}, "out_type": {"type": "DT_INT32"}}, "experimentalType": {"typeId": "TFT_PRODUCT", "args": [{"typeId": "TFT_SHAPE_TENSOR", "args": [{"typeId": "TFT_INT32"}]}]}}, {"name": "PartitionedCall/PartitionedCall/PartitionedCall/flatten/strided_slice", "op": "StridedSlice", "input": ["PartitionedCall/PartitionedCall/PartitionedCall/flatten/Shape", "PartitionedCall/PartitionedCall/PartitionedCall/flatten/strided_slice/stack", "PartitionedCall/PartitionedCall/PartitionedCall/flatten/strided_slice/stack_1", "PartitionedCall/PartitionedCall/PartitionedCall/flatten/strided_slice/stack_2"], "attr": {"shrink_axis_mask": {"i": "1"}, "Index": {"type": "DT_INT32"}, "new_axis_mask": {"i": "0"}, "begin_mask": {"i": "0"}, "T": {"type": "DT_INT32"}, "end_mask": {"i": "0"}, "ellipsis_mask": {"i": "0"}}}, {"name": "PartitionedCall/PartitionedCall/PartitionedCall/flatten/Reshape/shape", "op": "Pack", "input": ["PartitionedCall/PartitionedCall/PartitionedCall/flatten/strided_slice", "PartitionedCall/PartitionedCall/PartitionedCall/flatten/Reshape/shape/1"], "attr": {"N": {"i": "2"}, "axis": {"i": "0"}, "T": {"type": "DT_INT32"}}}, {"name": "PartitionedCall/PartitionedCall/PartitionedCall/flatten/Reshape", "op": "Reshape", "input": ["PartitionedCall/PartitionedCall/PartitionedCall/Reshape", "PartitionedCall/PartitionedCall/PartitionedCall/flatten/Reshape/shape"], "attr": {"T": {"type": "DT_FLOAT"}, "Tshape": {"type": "DT_INT32"}}}, {"name": "PartitionedCall/PartitionedCall/PartitionedCall/add_21", "op": "_FusedMatMul", "input": ["PartitionedCall/PartitionedCall/PartitionedCall/flatten/Reshape", "PartitionedCall/PartitionedCall/PartitionedCall/transpose_62", "PartitionedCall/PartitionedCall/PartitionedCall/mul_1"], "device": "/device:CPU:0", "attr": {"transpose_a": {"b": false}, "_input_shapes": {"list": {"shape": [{"dim": [{"size": "-103"}, {"size": "512"}]}, {"dim": [{"size": "512"}, {"size": "33"}]}]}}, "transpose_b": {"b": false}, "fused_ops": {"list": {"s": ["Qmlhc0FkZA=="]}}, "num_args": {"i": "1"}, "leakyrelu_alpha": {"f": 0.2}, "epsilon": {"f": 0.0}, "T": {"type": "DT_FLOAT"}}}, {"name": "Identity", "op": "Identity", "input": ["PartitionedCall/PartitionedCall/PartitionedCall/add_21"], "attr": {"T": {"type": "DT_FLOAT"}}}], "library": {}, "versions": {"producer": 1645}}, "weightsManifest": [{"paths": ["group1-shard1of11.bin", "group1-shard2of11.bin", "group1-shard3of11.bin", "group1-shard4of11.bin", "group1-shard5of11.bin", "group1-shard6of11.bin", "group1-shard7of11.bin", "group1-shard8of11.bin", "group1-shard9of11.bin", "group1-shard10of11.bin", "group1-shard11of11.bin"], "weights": [{"name": "PartitionedCall/PartitionedCall/PartitionedCall/strided_slice_5/stack", "shape": [1], "dtype": "int32"}, {"name": "PartitionedCall/PartitionedCall/PartitionedCall/strided_slice_5/stack_1", "shape": [1], "dtype": "int32"}, {"name": "PartitionedCall/PartitionedCall/PartitionedCall/strided_slice_5/stack_2", "shape": [1], "dtype": "int32"}, {"name": "PartitionedCall/PartitionedCall/PartitionedCall/Const_17", "shape": [1], "dtype": "int32"}, {"name": "PartitionedCall/PartitionedCall/PartitionedCall/Const_15", "shape": [4, 2], "dtype": "int32"}, {"name": "PartitionedCall/PartitionedCall/PartitionedCall/transpose_57/perm", "shape": [4], "dtype": "int32"}, {"name": "PartitionedCall/PartitionedCall/PartitionedCall/split_18", "shape": [3, 3, 512, 512], "dtype": "float32"}, {"name": "unknown_36", "shape": [512], "dtype": "float32"}, {"name": "PartitionedCall/PartitionedCall/PartitionedCall/transpose_58/perm", "shape": [4], "dtype": "int32"}, {"name": "PartitionedCall/PartitionedCall/PartitionedCall/Const_16", "shape": [4, 2], "dtype": "int32"}, {"name": "PartitionedCall/PartitionedCall/PartitionedCall/transpose_60/perm", "shape": [4], "dtype": "int32"}, {"name": "PartitionedCall/PartitionedCall/PartitionedCall/split_19", "shape": [3, 3, 512, 512], "dtype": "float32"}, {"name": "unknown_38", "shape": [512], "dtype": "float32"}, {"name": "PartitionedCall/PartitionedCall/PartitionedCall/transpose_61/perm", "shape": [4], "dtype": "int32"}, {"name": "PartitionedCall/PartitionedCall/PartitionedCall/Const_13", "shape": [4, 2], "dtype": "int32"}, {"name": "PartitionedCall/PartitionedCall/PartitionedCall/transpose_48/perm", "shape": [4], "dtype": "int32"}, {"name": "PartitionedCall/PartitionedCall/PartitionedCall/split_15", "shape": [3, 3, 256, 512], "dtype": "float32"}, {"name": "unknown_30", "shape": [512], "dtype": "float32"}, {"name": "PartitionedCall/PartitionedCall/PartitionedCall/transpose_49/perm", "shape": [4], "dtype": "int32"}, {"name": "PartitionedCall/PartitionedCall/PartitionedCall/Const_14", "shape": [4, 2], "dtype": "int32"}, {"name": "PartitionedCall/PartitionedCall/PartitionedCall/transpose_51/perm", "shape": [4], "dtype": "int32"}, {"name": "PartitionedCall/PartitionedCall/PartitionedCall/split_16", "shape": [3, 3, 512, 512], "dtype": "float32"}, {"name": "unknown_32", "shape": [512], "dtype": "float32"}, {"name": "PartitionedCall/PartitionedCall/PartitionedCall/transpose_52/perm", "shape": [4], "dtype": "int32"}, {"name": "PartitionedCall/PartitionedCall/PartitionedCall/Const_11", "shape": [4, 2], "dtype": "int32"}, {"name": "PartitionedCall/PartitionedCall/PartitionedCall/transpose_42/perm", "shape": [4], "dtype": "int32"}, {"name": "PartitionedCall/PartitionedCall/PartitionedCall/split_13", "shape": [3, 3, 256, 256], "dtype": "float32"}, {"name": "unknown_26", "shape": [256], "dtype": "float32"}, {"name": "PartitionedCall/PartitionedCall/PartitionedCall/transpose_43/perm", "shape": [4], "dtype": "int32"}, {"name": "PartitionedCall/PartitionedCall/PartitionedCall/Const_12", "shape": [4, 2], "dtype": "int32"}, {"name": "PartitionedCall/PartitionedCall/PartitionedCall/transpose_45/perm", "shape": [4], "dtype": "int32"}, {"name": "PartitionedCall/PartitionedCall/PartitionedCall/split_14", "shape": [3, 3, 256, 256], "dtype": "float32"}, {"name": "unknown_28", "shape": [256], "dtype": "float32"}, {"name": "PartitionedCall/PartitionedCall/PartitionedCall/transpose_46/perm", "shape": [4], "dtype": "int32"}, {"name": "PartitionedCall/PartitionedCall/PartitionedCall/Const_9", "shape": [4, 2], "dtype": "int32"}, {"name": "PartitionedCall/PartitionedCall/PartitionedCall/transpose_33/perm", "shape": [4], "dtype": "int32"}, {"name": "PartitionedCall/PartitionedCall/PartitionedCall/split_10", "shape": [3, 3, 128, 256], "dtype": "float32"}, {"name": "unknown_20", "shape": [256], "dtype": "float32"}, {"name": "PartitionedCall/PartitionedCall/PartitionedCall/transpose_34/perm", "shape": [4], "dtype": "int32"}, {"name": "PartitionedCall/PartitionedCall/PartitionedCall/Const_10", "shape": [4, 2], "dtype": "int32"}, {"name": "PartitionedCall/PartitionedCall/PartitionedCall/transpose_36/perm", "shape": [4], "dtype": "int32"}, {"name": "PartitionedCall/PartitionedCall/PartitionedCall/split_11", "shape": [3, 3, 256, 256], "dtype": "float32"}, {"name": "unknown_22", "shape": [256], "dtype": "float32"}, {"name": "PartitionedCall/PartitionedCall/PartitionedCall/transpose_37/perm", "shape": [4], "dtype": "int32"}, {"name": "PartitionedCall/PartitionedCall/PartitionedCall/Const_7", "shape": [4, 2], "dtype": "int32"}, {"name": "PartitionedCall/PartitionedCall/PartitionedCall/transpose_27/perm", "shape": [4], "dtype": "int32"}, {"name": "PartitionedCall/PartitionedCall/PartitionedCall/split_8", "shape": [3, 3, 128, 128], "dtype": "float32"}, {"name": "unknown_16", "shape": [128], "dtype": "float32"}, {"name": "PartitionedCall/PartitionedCall/PartitionedCall/transpose_28/perm", "shape": [4], "dtype": "int32"}, {"name": "PartitionedCall/PartitionedCall/PartitionedCall/Const_8", "shape": [4, 2], "dtype": "int32"}, {"name": "PartitionedCall/PartitionedCall/PartitionedCall/transpose_30/perm", "shape": [4], "dtype": "int32"}, {"name": "PartitionedCall/PartitionedCall/PartitionedCall/split_9", "shape": [3, 3, 128, 128], "dtype": "float32"}, {"name": "unknown_18", "shape": [128], "dtype": "float32"}, {"name": "PartitionedCall/PartitionedCall/PartitionedCall/transpose_31/perm", "shape": [4], "dtype": "int32"}, {"name": "PartitionedCall/PartitionedCall/PartitionedCall/Const_5", "shape": [4, 2], "dtype": "int32"}, {"name": "PartitionedCall/PartitionedCall/PartitionedCall/transpose_18/perm", "shape": [4], "dtype": "int32"}, {"name": "PartitionedCall/PartitionedCall/PartitionedCall/split_5", "shape": [3, 3, 64, 128], "dtype": "float32"}, {"name": "unknown_10", "shape": [128], "dtype": "float32"}, {"name": "PartitionedCall/PartitionedCall/PartitionedCall/transpose_19/perm", "shape": [4], "dtype": "int32"}, {"name": "PartitionedCall/PartitionedCall/PartitionedCall/Const_6", "shape": [4, 2], "dtype": "int32"}, {"name": "PartitionedCall/PartitionedCall/PartitionedCall/transpose_21/perm", "shape": [4], "dtype": "int32"}, {"name": "PartitionedCall/PartitionedCall/PartitionedCall/split_6", "shape": [3, 3, 128, 128], "dtype": "float32"}, {"name": "unknown_12", "shape": [128], "dtype": "float32"}, {"name": "PartitionedCall/PartitionedCall/PartitionedCall/transpose_22/perm", "shape": [4], "dtype": "int32"}, {"name": "PartitionedCall/PartitionedCall/PartitionedCall/Const_3", "shape": [4, 2], "dtype": "int32"}, {"name": "PartitionedCall/PartitionedCall/PartitionedCall/transpose_12/perm", "shape": [4], "dtype": "int32"}, {"name": "PartitionedCall/PartitionedCall/PartitionedCall/split_3", "shape": [3, 3, 64, 64], "dtype": "float32"}, {"name": "unknown_6", "shape": [64], "dtype": "float32"}, {"name": "PartitionedCall/PartitionedCall/PartitionedCall/transpose_13/perm", "shape": [4], "dtype": "int32"}, {"name": "PartitionedCall/PartitionedCall/PartitionedCall/Const_4", "shape": [4, 2], "dtype": "int32"}, {"name": "PartitionedCall/PartitionedCall/PartitionedCall/transpose_15/perm", "shape": [4], "dtype": "int32"}, {"name": "PartitionedCall/PartitionedCall/PartitionedCall/split_4", "shape": [3, 3, 64, 64], "dtype": "float32"}, {"name": "unknown_8", "shape": [64], "dtype": "float32"}, {"name": "PartitionedCall/PartitionedCall/PartitionedCall/transpose_16/perm", "shape": [4], "dtype": "int32"}, {"name": "PartitionedCall/PartitionedCall/PartitionedCall/Const_1", "shape": [4, 2], "dtype": "int32"}, {"name": "PartitionedCall/PartitionedCall/PartitionedCall/transpose_6/perm", "shape": [4], "dtype": "int32"}, {"name": "PartitionedCall/PartitionedCall/PartitionedCall/split_1", "shape": [3, 3, 64, 64], "dtype": "float32"}, {"name": "unknown_2", "shape": [64], "dtype": "float32"}, {"name": "PartitionedCall/PartitionedCall/PartitionedCall/transpose_7/perm", "shape": [4], "dtype": "int32"}, {"name": "PartitionedCall/PartitionedCall/PartitionedCall/Const_2", "shape": [4, 2], "dtype": "int32"}, {"name": "PartitionedCall/PartitionedCall/PartitionedCall/transpose_9/perm", "shape": [4], "dtype": "int32"}, {"name": "PartitionedCall/PartitionedCall/PartitionedCall/split_2", "shape": [3, 3, 64, 64], "dtype": "float32"}, {"name": "unknown_4", "shape": [64], "dtype": "float32"}, {"name": "PartitionedCall/PartitionedCall/PartitionedCall/transpose_10/perm", "shape": [4], "dtype": "int32"}, {"name": "PartitionedCall/transpose/perm", "shape": [4], "dtype": "int32"}, {"name": "PartitionedCall/PartitionedCall/PartitionedCall/Const", "shape": [4, 2], "dtype": "int32"}, {"name": "PartitionedCall/PartitionedCall/PartitionedCall/transpose_1/perm", "shape": [4], "dtype": "int32"}, {"name": "PartitionedCall/PartitionedCall/PartitionedCall/split", "shape": [7, 7, 3, 64], "dtype": "float32"}, {"name": "unknown_0", "shape": [64], "dtype": "float32"}, {"name": "PartitionedCall/PartitionedCall/PartitionedCall/transpose_2/perm", "shape": [4], "dtype": "int32"}, {"name": "PartitionedCall/PartitionedCall/PartitionedCall/PadV2/paddings", "shape": [4, 2], "dtype": "int32"}, {"name": "PartitionedCall/PartitionedCall/PartitionedCall/PadV2/constant_values", "shape": [], "dtype": "float32"}, {"name": "PartitionedCall/PartitionedCall/PartitionedCall/transpose_3/perm", "shape": [4], "dtype": "int32"}, {"name": "PartitionedCall/PartitionedCall/PartitionedCall/transpose_4/perm", "shape": [4], "dtype": "int32"}, {"name": "PartitionedCall/PartitionedCall/PartitionedCall/transpose_24/perm", "shape": [4], "dtype": "int32"}, {"name": "PartitionedCall/PartitionedCall/PartitionedCall/split_7", "shape": [1, 1, 64, 128], "dtype": "float32"}, {"name": "unknown_14", "shape": [128], "dtype": "float32"}, {"name": "PartitionedCall/PartitionedCall/PartitionedCall/transpose_25/perm", "shape": [4], "dtype": "int32"}, {"name": "PartitionedCall/PartitionedCall/PartitionedCall/transpose_39/perm", "shape": [4], "dtype": "int32"}, {"name": "PartitionedCall/PartitionedCall/PartitionedCall/split_12", "shape": [1, 1, 128, 256], "dtype": "float32"}, {"name": "unknown_24", "shape": [256], "dtype": "float32"}, {"name": "PartitionedCall/PartitionedCall/PartitionedCall/transpose_40/perm", "shape": [4], "dtype": "int32"}, {"name": "PartitionedCall/PartitionedCall/PartitionedCall/transpose_54/perm", "shape": [4], "dtype": "int32"}, {"name": "PartitionedCall/PartitionedCall/PartitionedCall/split_17", "shape": [1, 1, 256, 512], "dtype": "float32"}, {"name": "unknown_34", "shape": [512], "dtype": "float32"}, {"name": "PartitionedCall/PartitionedCall/PartitionedCall/transpose_55/perm", "shape": [4], "dtype": "int32"}, {"name": "ConstantFolding/PartitionedCall/PartitionedCall/PartitionedCall/split_20-folded-1", "shape": [2], "dtype": "int32"}, {"name": "PartitionedCall/PartitionedCall/PartitionedCall/strided_slice_6/stack", "shape": [1], "dtype": "int32"}, {"name": "PartitionedCall/PartitionedCall/PartitionedCall/strided_slice_6/stack_1", "shape": [1], "dtype": "int32"}, {"name": "PartitionedCall/PartitionedCall/PartitionedCall/strided_slice_6/stack_2", "shape": [1], "dtype": "int32"}, {"name": "PartitionedCall/PartitionedCall/PartitionedCall/Const_19", "shape": [1], "dtype": "int32"}, {"name": "PartitionedCall/PartitionedCall/PartitionedCall/flatten/strided_slice/stack", "shape": [1], "dtype": "int32"}, {"name": "PartitionedCall/PartitionedCall/PartitionedCall/flatten/strided_slice/stack_1", "shape": [1], "dtype": "int32"}, {"name": "PartitionedCall/PartitionedCall/PartitionedCall/flatten/strided_slice/stack_2", "shape": [1], "dtype": "int32"}, {"name": "PartitionedCall/PartitionedCall/PartitionedCall/flatten/Reshape/shape/1", "shape": [], "dtype": "int32"}, {"name": "PartitionedCall/PartitionedCall/PartitionedCall/transpose_62", "shape": [512, 33], "dtype": "float32"}, {"name": "PartitionedCall/PartitionedCall/PartitionedCall/mul_1", "shape": [33], "dtype": "float32"}]}]}